Faza III/predikcija_detekcija/model/Model_10god.pth (torch, 15791 bytes, 8 tensors)

fc1.0.weight f4 [40, 15]
000000 ef 17 95 33 06 70 f2 bd 32 00 0a bb 91 8f 90 b4
       6.942707e-08 -0.11837773 -0.0021057245 -2.6926548e-07
000010 cb 7d 84 bd 48 9e a7 23 a7 33 0a 91 9f 41 d6 32
       -0.064693056 1.8173211e-17 -1.0902197e-28 2.494272e-08
000020 da 51 da 98 e9 f8 80 3d aa ee 1d bd 3d a7 96 bb
       -5.643433e-24 0.06297476 -0.038557686 -0.004597573
000030 d7 80 c0 bc 9f d0 44 bd d2 78 2c be 24 2b 06 00
       -0.023498936 -0.04805052 -0.16842964 5.66489e-40
000040 bf 8c be bd 5e 37 e1 17 55 d8 07 08 43 92 ff ba
       -0.09304189 1.4554261e-24 4.087938e-34 -0.0019498545
000050 5e d0 00 80 88 3f 04 80 1a 83 de 0b 3f 98 02 80
       -7.4748e-41 -3.90133e-40 8.570855e-32 -2.38287e-40
000060 bc ea 9e bd 83 23 0a 3d 94 39 81 bd 38 aa 94 bc
       -0.07759616 0.033725273 -0.0630981 -0.018147573
000070 ae b4 ef bd b6 6d 31 3d 90 20 00 00 e2 08 20 ba
       -0.11704384 0.04331752 1.1681e-41 -0.0006104839
000080 97 03 90 86 d4 fe 05 80 5b 51 17 af d2 cf 01 80
       -5.4172054e-35 -5.50593e-40 -1.3762273e-10 -1.66387e-40
000090 39 df 07 80 1f d6 02 80 73 13 04 00 bb 6a af bc
       -7.22926e-40 -2.60483e-40 3.74319e-40 -0.021413198
0000a0 15 c4 fd bb 92 5f d4 bb 04 f9 87 b7 b1 87 97 bb
       -0.007744322 -0.0064811194 -1.6209211e-05 -0.00462433
0000b0 13 00 6e bb 00 80 1f 01 b8 e7 3d b8 d3 67 81 09
       -0.0036315962 2.9295523e-38 -4.5276916e-05 3.1153256e-33
0000c0 2d 60 53 80 13 ec 9d 34 de 11 52 80 42 a5 06 00
       -7.656848e-39 2.9415295e-07 -7.53692e-39 6.10296e-40
0000d0 a6 dd 3b 80 12 5f 49 80 11 cb 34 bd 94 db 6e bc
       -5.497807e-39 -6.738096e-39 -0.04413897 -0.014578719
0000e0 2b 1b a3 bb ad 87 c8 34 73 be 83 bb 3e f8 8b bb
       -0.004977604 3.735162e-07 -0.004020506 -0.004271536
0000f0 94 9c cf b8 c1 b7 3c be f5 6a 22 3d 85 87 1e b7
       -9.899694e-05 -0.18429472 0.039652783 -9.449087e-06
000100 e0 f2 04 3d 8f 26 6c af 94 a7 d1 1e 12 6c cb b8
       0.032458186 -2.1477774e-10 2.2198044e-20 -9.699924e-05
000110 f0 19 71 2e 21 bb 93 bc d5 57 28 be 5f 0e e3 3d
       5.4820093e-11 -0.018033566 -0.16439755 0.110867254
000120 12 75 cd bd 83 f1 8e 3e 06 13 4a bd ff 87 0b 00
       -0.10032095 0.27918634 -0.04933455 1.058977e-39
000130 4c c2 a7 19 db 19 08 00 8c 9c 02 80 d2 f5 9b 87
       1.7345871e-23 7.43959e-40 -2.3983e-40 -2.3466288e-34
000140 52 f8 00 00 36 f3 06 00 3a aa 06 80 35 b8 0c 00
       8.908e-41 6.3826e-40 -6.12079e-40 1.168107e-39
000150 7e 02 85 b7 45 6a d6 b4 55 ce 91 ae f1 77 18 9b
       -1.5855996e-05 -3.9937927e-07 -6.6304885e-11 -1.26119e-22
000160 f6 3b 17 2a d8 7c 2c a2 aa 91 0e 00 e8 a3 36 bb
       1.3432297e-13 -2.3376438e-18 1.337951e-39 -0.0027868692
000170 3d 86 23 8c fa 55 01 80 33 65 36 af 94 47 0b 00
       -1.2597459e-31 -1.22678e-40 -1.6588757e-10 1.035868e-39
000180 17 d5 06 00 18 76 0d 00 a3 71 04 80 6c b3 24 bd
       6.27455e-40 1.236226e-39 -4.08107e-40 -0.040210173
000190 5a c2 bb bc c4 39 9c 3b 17 a5 a1 b9 a0 bb a1 bb
       -0.022919822 0.0047676284 -0.00030831315 -0.0049356967
0001a0 ed 90 2c bc cc 22 01 00 84 ba 0b af 42 5b 0d 00
       -0.0105326 1.04318e-40 -1.270824e-10 1.226599e-39
0001b0 8e 61 0a 80 44 33 01 80 dd 50 0a 80 4a d2 09 80
       -9.53351e-40 -1.10226e-40 -9.47363e-40 -9.01957e-40
0001c0 44 eb 0b 00 cd bf 08 80 ce 57 3b ba 00 be aa b8
       1.094588e-39 -8.03489e-40 -0.0007146568 -8.141622e-05
0001d0 7f dc 20 b5 a4 5a 88 1a 2b 31 84 b3 6e e1 2b b3
       -5.992551e-07 5.639472e-23 -6.1556726e-08 -4.0019067e-08
0001e0 ae 95 dc 29 9b ea 69 3e 0f 84 1d ba 9e c8 7a b0
       9.795928e-14 0.22843401 -0.0006008753 -9.1234564e-10
0001f0 c4 19 34 3d 44 fc e0 9e ed 63 cf 06 66 bf 3e b2
       0.043969885 -2.3821257e-20 7.8011574e-35 -1.11029745e-08
000200 a9 f0 05 a7 e3 76 91 be 1f da 7d 3e 15 e2 97 bd
       -1.858792e-15 -0.28411016 0.24790238 -0.074161686
000210 29 66 38 be 1c 54 12 be 17 1c 5e 3d 66 af 84 3b
       -0.18007721 -0.14289898 0.054226007 0.0040492294
000220 f5 34 5b 3d b0 64 cb be 42 40 00 bd 04 87 f7 3c
       0.0535173 -0.39725256 -0.03131128 0.030215748
000230 77 73 b5 39 a3 f8 e1 b2 09 65 a2 3d c7 fa d4 39
       0.00034609038 -2.6306514e-08 0.07929427 0.00040622635
000240 bf 24 9c be 43 2d 88 3e dd cb 89 be b6 2f d6 be
       -0.30496785 0.26597032 -0.26913348 -0.41833276
000250 ec 0e 04 bf 2f f3 09 3e b0 d0 c7 a6 a8 fc ef bc
       -0.5158527 0.13471673 -1.3864964e-15 -0.02929528
000260 2f 95 02 35 d9 87 d5 a9 f5 15 66 3b fb 93 0b 94
       4.8645865e-07 -9.482666e-14 0.0035108302 -7.0468906e-27
000270 db ee 88 00 ad 1d 61 2e 77 42 84 00 3e 59 74 be
       1.2575313e-38 5.1185434e-11 1.2146129e-38 -0.23862168
000280 17 ed 56 3e e1 30 12 3e 78 c1 63 bc 69 05 fd bd
       0.2098888 0.14276458 -0.013901107 -0.123545475
000290 c2 e6 bc bd 33 ee 02 80 46 d9 4c ae 4f ec 0c 00
       -0.09223701 -2.69121e-40 -4.6577207e-11 1.186798e-39
0002a0 58 ec 0e 00 de 40 3c 82 21 25 07 80 4b 83 0d 80
       1.370481e-39 -1.3830675e-37 -6.56168e-40 -1.24096e-39
0002b0 7e f5 06 80 11 52 0a 00 e2 b6 f4 b9 03 62 b7 b7
       -6.39079e-40 9.47795e-40 -0.00046675565 -2.186094e-05
0002c0 8d df 8f b4 80 bc 0f 99 e2 09 c6 b2 c4 b7 e3 b2
       -2.679848e-07 -7.430994e-24 -2.3054728e-08 -2.6509845e-08
0002d0 42 b2 0e 00 cc ec 9d a1 da bb 31 80 7d cf 46 00
       1.349644e-39 -1.0701413e-18 -4.567328e-39 6.502918e-39
0002e0 13 fa 37 82 7d c7 8e 80 ea cd 06 00 9e 56 58 00
       -1.3516484e-37 -1.3112203e-38 6.24881e-40 8.112596e-39
0002f0 de e9 17 80 b1 17 aa b6 24 71 51 ae 78 cd 1c 29
       -2.196112e-39 -5.069153e-06 -4.7621587e-11 3.4817174e-14
000300 ec a8 77 09 3b 40 64 a4 62 2d 28 aa 1b b9 96 1d
       2.981097e-33 -4.9494024e-17 -1.4937143e-13 3.9896064e-21
000310 9d e0 32 bc 88 92 a2 35 ac 39 b7 1e 1a f5 56 bd
       -0.01091781 1.2112587e-06 1.9399731e-20 -0.05247984
000320 e0 6a 43 01 22 c3 02 00 ba eb 19 1e 0f 5e 5f 81
       3.5892523e-38 2.53671e-40 8.1485e-21 -4.1026115e-38
000330 fe 97 3b 3c 8e de 86 3c 79 9a 31 bd 66 47 20 3d
       0.011449812 0.016463544 -0.043360207 0.03913059
000340 df bd 86 bd af 2e 07 be d6 d0 40 bc ef a7 55 be
       -0.06579184 -0.13201402 -0.01176854 -0.20864843
000350 15 6d 9e 3e 81 c7 e9 3b 6a 68 2b be 19 ee 8c b7
       0.30942598 0.0071343784 -0.1673905 -1.6800173e-05
000360 e7 b2 bd b1 fa 63 36 bd a7 a7 ee b8 47 05 17 3e
       -5.520963e-09 -0.04452894 -0.00011379952 0.14748107
000370 ca 4a a4 be e2 b0 d5 3e de 63 fd 3e e7 b3 b2 3e
       -0.3208831 0.41736513 0.49490255 0.3490288
000380 80 e9 27 3e 16 5b 05 80 ab 1f 3b 93 0d e9 08 00
       0.16397667 -4.91853e-40 -2.3618332e-27 8.18287e-40
000390 ef 7d 08 00 73 99 02 80 9e 3c 06 80 cb 7b 00 80
       7.7986e-40 -2.38718e-40 -5.72758e-40 -4.4409e-41
0003a0 56 a2 08 80 5c 4e 02 80 51 68 06 b4 24 f7 61 ac
       -7.92919e-40 -2.11781e-40 -1.2517673e-07 -3.2111614e-12
0003b0 14 05 f2 1e 15 68 5d 06 13 1d f5 1d ca 57 9f 9a
       2.5624847e-20 4.1641948e-35 6.4881022e-21 -6.590269e-23
0003c0 30 ae ed 83 18 3f 54 bd 57 eb ec 9c d6 75 83 00
       -1.39695995e-36 -0.051817983 -1.5678004e-21 1.2072722e-38
0003d0 61 bc 6d b9 5f 6d 84 00 c6 3a 5d 80 54 2a 85 00
       -0.00022672258 1.216152e-38 -8.561785e-39 1.2229305e-38
0003e0 41 ab 74 00 3f 5b 0b be 91 ff f8 bd 19 26 69 bd
       1.0714352e-38 -0.13609026 -0.121581204 -0.0569211
0003f0 c0 8a 29 bc d2 a0 32 bd 9a b5 3e bd 83 e0 85 00
       -0.010348022 -0.0436104 -0.046559907 1.229466e-38

fc1.0.bias f4 [40]
000000 ad 00 3c b8 e2 43 b8 8f 84 ef 00 00 a6 c8 4a 00
       -4.4823322e-05 -1.8169948e-29 8.5922e-41 6.867806e-39
000010 a5 71 19 3a 80 4f 0d 80 51 74 01 80 a1 76 04 00
       0.0005853421 -1.22238e-39 -1.33562e-40 4.09898e-40
000020 66 63 78 b5 06 08 be bd 4f a2 9c af 14 a4 0a 80
       -9.2531843e-07 -0.09278874 -2.8491562e-10 -9.77215e-40
000030 e5 05 0f 00 b4 80 4d ab b2 75 55 3d e4 5d 07 80
       1.379647e-39 -7.300924e-13 0.052114196 -6.7653e-40
000040 14 4e 8d 0e 4d ed 0f 19 26 26 06 80 ad 7a 13 82
       3.483437e-30 7.440849e-24 -5.64698e-40 -1.0835061e-37
000050 e5 2c 3b b9 d4 3c 0e 00 ad 7b 86 8a 19 15 02 80
       -0.00017850434 1.307518e-39 -1.2950252e-32 -1.9124e-40
000060 f6 3c 2c b0 ee 86 68 80 ee e6 8f 39 af 38 ab 35
       -6.2659866e-10 -9.599295e-39 0.00027447141 1.275699e-06
000070 76 de 02 00 65 6f af a9 59 f7 de ba 84 aa 9a b5
       2.63475e-40 -7.790885e-14 -0.0017010971 -1.1523521e-06
000080 e5 c1 f8 ab b4 3b cf 33 8d 1e 05 80 f7 99 01 00
       -1.7675276e-12 9.6500486e-08 -4.70137e-40 1.47068e-40
000090 64 c0 8e af f9 9b 27 b2 f1 5b 21 3d 8e c1 3b 85
       -2.596635e-10 -9.7561434e-09 0.039394323 -8.828248e-36

fc2.0.weight f4 [50, 40]
000000 8f fa 41 bd 87 2e 00 00 01 45 ce 27 04 98 02 80
       -0.047358092 1.6691e-41 5.72513e-15 -2.38204e-40
000010 1a 04 f5 bb f2 09 05 00 4e ed a2 b7 60 53 d0 0f
       -0.0074772956 4.62745e-40 -1.9422409e-05 2.0542498e-29
000020 36 66 77 bc f1 07 74 bd fa 5c 91 bc 20 4a 67 25
       -0.015100053 -0.059577886 -0.01774453 2.0061171e-16
000030 eb ec 07 80 2b ff ab bc 0d 17 b0 bd 48 37 07 80
       -7.27839e-40 -0.020995697 -0.085981466 -6.6268e-40
000040 f5 18 09 80 62 43 11 ba 92 bf 0d 00 53 bd a9 30
       -8.35472e-40 -0.0005541352 1.262584e-39 1.2350178e-09
000050 7b 44 aa bc ba a2 02 80 67 6b ea b6 5c 71 03 00
       -0.020784607 -2.42046e-40 -6.9862467e-06 3.16172e-40
000060 c9 f8 4f bc 21 90 81 00 24 dd 58 bc cb d3 42 bc
       -0.012693592 1.1898483e-38 -0.013236318 -0.011891316
000070 e8 d9 00 00 7c c0 a5 b7 bf 84 b1 39 bf bb 46 bc
       7.817e-41 -1.9759165e-05 0.00033858974 -0.012129723
000080 39 83 23 bd 37 3f 58 3c 1e f1 02 80 57 86 04 80
       -0.039920066 0.013198665 -2.70168e-40 -4.15534e-40
000090 4e 2c 02 bb 86 b2 12 bb 84 04 d2 bd 60 21 4c 00
       -0.0019862833 -0.002238424 -0.102547675 6.99147e-39
0000a0 6b 0c 89 bb 32 5c 03 b6 36 db 08 00 c6 a7 1f 00
       -0.0041823885 -1.9574186e-06 8.13322e-40 2.907086e-39
0000b0 d0 67 de ba e5 3d 01 00 5c 7d 05 80 26 21 03 00
       -0.0016968194 1.14039e-40 -5.04148e-40 2.87398e-40
0000c0 a1 41 29 93 58 41 86 bd 15 f9 43 ba 38 46 00 80
       -2.1363156e-27 -0.06555432 -0.0007475776 -2.519e-41
0000d0 cc 84 0a 80 26 8a 59 bc 4e 8f 55 bc da 0a 01 80
       -9.65994e-40 -0.013277566 -0.013034655 -9.5728e-41
0000e0 34 77 07 00 f0 c4 b9 b2 f6 c4 0e 00 76 2e 1b 80
       6.8561e-40 -2.1626391e-08 1.356353e-39 -2.496225e-39
0000f0 91 16 f7 bb ea ed 0d 80 8f 02 01 80 61 81 3e 00
       -0.007540532 -1.279209e-39 -9.2753e-41 5.740213e-39
000100 85 25 2a bb b5 60 0f 80 98 e0 07 bb 1e c9 0c 80
       -0.0025962305 -1.412224e-39 -0.0020733234 -1.174173e-39
000110 aa 30 3a 80 75 0f bd ba 1b d5 91 b4 4a 98 1b 39
       -5.343916e-39 -0.0014424162 -2.716341e-07 0.00014838684
000120 41 23 82 3a 18 41 4d bc 48 78 0c 00 59 81 83 b6
       0.0009928719 -0.012527727 1.145175e-39 -3.9191623e-06
000130 17 7c 57 2c f7 72 e9 ba a4 79 04 bc 4a b7 24 80
       3.0622221e-12 -0.0017810751 -0.008085642 -3.37183e-39
000140 99 0f d2 3c 7e d6 1d 3d 9c 1b 18 36 7b cb 1f 00
       0.025642203 0.038534634 2.2665836e-06 2.919895e-39
000150 a9 a1 a5 bc b1 5f 0c 80 29 24 d5 b4 4d 88 b6 85
       -0.020218687 -1.136354e-39 -3.9700652e-07 -1.7165267e-35
000160 91 f0 1f bd b1 1a 66 bd 4a fe 16 bb 8f c5 f5 16
       -0.03904778 -0.0561778 -0.0023039752 3.9706562e-25
000170 90 23 72 80 82 76 7b bc 30 bd a8 bd 83 0a 0c 00
       -1.0482004e-38 -0.015348079 -0.0823921 1.105797e-39
000180 18 b0 2c b9 f3 78 20 b8 11 d9 01 00 6e d8 09 80
       -0.00016468798 -3.8259615e-05 1.69704e-40 -9.0416e-40
000190 67 c8 1d 3d 2d 61 d7 97 8a 11 1a bb af 55 0b 80
       0.038521197 -1.391858e-24 -0.002350899 -1.040928e-39
0001a0 b6 3d bf 3c 57 fd d5 8f e4 8c 93 bd 0f 1f 10 bc
       0.023344856 -2.1101005e-29 -0.07204607 -0.008796467
0001b0 fe c2 1a 02 27 43 ae 3c bf e3 b9 37 12 eb 85 bc
       1.1370093e-37 0.021272255 2.2159771e-05 -0.016347442
0001c0 29 57 6e 3c 49 3e 6c 3d ac c5 07 0f 62 50 54 3b
       0.014547148 0.057676587 6.694084e-30 0.0032396545
0001d0 f1 23 56 bc f7 12 8e 3d 57 54 b7 bb 28 e5 03 00
       -0.013070093 0.06937211 -0.005594771 3.57712e-40
0001e0 db cb 9d bd 14 b8 2f 38 cf 53 d5 b9 3a 45 04 80
       -0.07704898 4.1894687e-05 -0.00040688968 -3.92176e-40
0001f0 f0 d8 00 be af fe 07 80 28 33 3b 36 27 74 a8 03
       -0.12582755 -7.34212e-40 2.7894948e-06 9.90082e-37
000200 99 16 87 3d 58 23 9f 3d f5 8c 37 3d e6 d7 ed 1c
       0.06596107 0.07770413 0.04481216 1.5739153e-21
000210 9e f9 09 80 ba 91 9e bc 44 71 1b be 4e 37 04 00
       -9.16065e-40 -0.019356597 -0.15179926 3.87182e-40
000220 ba 26 8f 3d 24 32 a2 3b 98 06 01 80 3d 5f 9b b4
       0.069898084 0.004949825 -9.4201e-41 -2.8940295e-07
000230 cf eb 3e bd a6 dd 9b 08 b2 58 f5 3b 9b 7e 81 97
       -0.046611603 9.3808325e-34 0.00748738 -8.368389e-25
000240 79 aa 0e bd e9 36 83 00 d8 1c 15 bd b2 c9 bb bd
       -0.034830544 1.2050148e-38 -0.03640446 -0.0916933
000250 9c 05 fc 17 26 36 1d bd c4 8f 8a 3d 25 4f 68 bd
       1.6286534e-24 -0.038381718 0.06765702 -0.056716103
000260 5c 27 90 bc 17 93 af bc 60 33 02 18 9f 21 92 b6
       -0.017596893 -0.021432443 1.6828044e-24 -4.355053e-06
000270 a9 93 25 3d 71 d6 84 bd aa dd d6 bd 56 0e 54 80
       0.040424023 -0.06486214 -0.10491498 -7.719324e-39
000280 1b f5 ac bb 04 54 06 80 ac 54 a0 b9 43 69 08 80
       -0.0052782423 -5.81152e-40 -0.00030580664 -7.72445e-40
000290 77 1d 88 bb 92 e3 02 80 78 1f fe 38 05 49 00 14
       -0.004153903 -2.65308e-40 0.00012117525 6.476749e-27
0002a0 89 8f 7c 3b 51 12 b9 bd 2f 4f 50 bd 43 9c f7 2d
       0.0038537702 -0.09036697 -0.050856765 2.8150043e-11
0002b0 6d 87 04 80 37 cd 3f 3c 1c 47 31 bd 12 5e 06 80
       -4.15924e-40 0.011706642 -0.043280706 -5.84759e-40
0002c0 5e c7 ba b4 af f7 62 38 64 fa ef 82 41 ba d0 30
       -3.4790258e-07 5.4113272e-05 -3.526161e-37 1.5186928e-09
0002d0 c8 0b 26 3d 58 29 03 80 3a 6d 29 35 93 47 06 00
       0.04053858 -2.90338e-40 6.311635e-07 5.76689e-40
0002e0 f7 5e 6a bc 10 28 69 00 84 68 db bc 95 c1 76 bc
       -0.014304868 9.657099e-39 -0.026783235 -0.015060802
0002f0 26 77 3e 0b dc 26 ac ba a4 c5 df bc 2d 3c 5e bc
       3.6682306e-32 -0.001313414 -0.027315922 -0.013564152
000300 ce b6 97 bb 70 69 1e bd 89 86 90 9c d3 c5 06 00
       -0.0046299463 -0.03867477 -9.563897e-22 6.21979e-40
000310 2c c7 27 bc 07 51 9b 3c 67 4f ef bc b9 6b 43 80
       -0.010240357 0.018959535 -0.029212667 -6.191622e-39
000320 2f 85 68 bc 8c 53 00 80 1f 58 f4 2c 3c 9c 0a 00
       -0.01419191 -2.9971e-41 6.9446805e-12 9.74401e-40
000330 91 de 25 b9 f3 06 05 00 2a 30 d6 b6 ce 36 f5 8b
       -0.00015818539 4.6167e-40 -6.383304e-06 -9.445303e-32
000340 b2 78 02 ba f2 26 97 bb 4e 21 2c ba 9d b8 33 a1
       -0.00049770914 -0.004612797 -0.0006566242 -6.0891893e-19
000350 bc b8 02 80 69 71 98 3b 5b cc 8f bc 92 7c 0c 00
       -2.49941e-40 0.0046521914 -0.017553499 1.146713e-39
000360 7d 84 05 80 2e b9 8f 37 88 7d 00 00 22 11 4a a4
       -5.06705e-40 1.713316e-05 4.5032e-41 -4.381628e-17
000370 8e b3 6c 3b 82 9f 23 89 66 8d 9e bb 04 93 03 ad
       0.0036117765 -1.9695412e-33 -0.0048386334 -7.479132e-12
000380 fc 4e 27 bc 4c 3a 6f 80 36 59 ba bc 6b 63 88 bb
       -0.010211702 -1.0214653e-38 -0.022747617 -0.004162242
000390 45 cd 03 80 eb c0 86 bb 0e 85 b0 b5 f7 bf 90 bc
       -3.49143e-40 -0.004112353 -1.3151746e-06 -0.017669661
0003a0 4a f2 73 bd c7 87 15 3b cf 15 0c 80 42 e0 04 00
       -0.059557237 0.0022816525 -1.10985e-39 4.4779e-40
0003b0 8f 80 cf bb 8c b9 5e bb 7f e2 dd ba ec cc 05 80
       -0.006332464 -0.0033985106 -0.0016928463 -5.3269e-40
0003c0 1b 36 41 be 86 7f 47 3d f8 a8 33 a2 f1 ee 1a 00
       -0.18868296 0.0487056 -2.4348475e-18 2.473439e-39
0003d0 28 56 50 bd 1b e2 05 80 22 b5 28 94 d2 02 01 80
       -0.050863415 -5.40289e-40 -8.5175546e-27 -9.2847e-41
0003e0 29 e0 e7 3b 97 e3 52 3e bc 49 d2 bc 90 d4 01 80
       0.0070762825 0.20594631 -0.025669925 -1.68089e-40
0003f0 b4 49 17 80 c8 dd db 3d 95 2c 3c be fd c7 01 80
       -2.138656e-39 0.10735661 -0.18376382 -1.63578e-40

fc2.0.bias f4 [50]
000000 ac d7 7c ac ae 99 c3 28 49 1e 2a b7 d1 5c d1 ba
       -3.5931076e-12 2.1715997e-14 -1.0139841e-05 -0.0015973096
000010 62 05 06 b4 e5 50 19 af a0 51 cd bc f4 c0 09 3b
       -1.2481681e-07 -1.3944008e-10 -0.025063336 0.002101955
000020 6e 11 41 a4 52 13 60 a4 e2 bf f6 bb 55 8e 94 a5
       -4.1864967e-17 -4.8588622e-17 -0.0075301984 -2.5770355e-16
000030 cf 2b e1 02 38 45 34 2e e4 46 9b b8 40 2e da 24
       3.3085924e-37 4.098874e-11 -7.40418e-05 9.462078e-17
000040 e2 2e d6 b5 6c c7 e9 b3 eb 54 11 38 8f 3e 55 3b
       -1.5957887e-06 -1.08861826e-07 3.464978e-05 0.0032538509
000050 10 a6 48 39 bd a9 eb bc ba b0 cf 3c 81 ae cc 27
       0.0001913535 -0.028767461 0.025352824 5.681057e-15
000060 86 24 09 31 97 6e 6d aa 91 53 82 af 7d e7 75 80
       1.9956885e-09 -2.1088197e-13 -2.370624e-10 -1.0827795e-38
000070 9e 62 23 b8 6f 69 06 06 b5 b3 14 b3 ff 71 77 80
       -3.8954073e-05 2.528006e-35 -3.4622378e-08 -1.0969318e-38
000080 63 a5 a6 31 c1 0a 2c b3 71 d6 17 aa ba d5 06 30
       4.850038e-09 -4.005665e-08 -1.3485893e-13 4.905264e-10
000090 1c 87 24 3b 48 d5 9b 31 85 41 3a 3c a0 37 96 a5
       0.0025104946 4.535341e-09 0.01136816 -2.6058545e-16
0000a0 0b 6e 07 3c 4f 2a 5f b7 19 44 42 3c 09 4e 6b a2
       0.008265982 -1.33016865e-05 0.011857056 -3.188975e-18
0000b0 2a 2c f9 b9 da 0e 37 82 38 c9 1e b5 66 69 44 3b
       -0.00047525886 -1.3448979e-37 -5.91524e-07 0.002997005
0000c0 56 5b 72 a7 80 63 83 ba
       -3.363376e-15 -0.001002416

fc3.0.weight f4 [10, 50]
000000 fe 35 08 bd c5 93 9d 3a ac df 9c bc ae 1a 56 bd
       -0.033254616 0.0012022188 -0.019149624 -0.052271537
000010 93 c5 98 bc 43 c8 a0 3a 69 4d 26 be 97 28 15 3c
       -0.018648898 0.0012266714 -0.16240467 0.009103916
000020 22 7e 19 bd 2b 14 f4 3b 07 35 97 bd e4 09 02 3e
       -0.037473805 0.0074486933 -0.07383161 0.12699085
000030 12 25 62 b5 3d 1b 70 3d 4f 89 da 3c 04 3b f4 3c
       -8.4245505e-07 0.058619726 0.026676802 0.029813297
000040 90 73 68 bc d9 71 3c 3d c0 53 e3 3c 38 74 d1 bd
       -0.0141877085 0.04600701 0.027749896 -0.10227245
000050 d7 8c 51 bd 4a 34 eb bd cb a3 a5 3d 48 fc d5 3c
       -0.051159706 -0.11484583 0.08087882 0.026121274
000060 ed 68 a5 3c 18 58 9c a1 6d 89 2c 3b 3b 2d 71 b2
       0.020191634 -1.0594289e-18 0.002632703 -1.40383305e-08
000070 de ef 2a bd 2f 95 ab b6 b0 55 30 bd 1e 42 a0 bb
       -0.04173266 -5.1135644e-06 -0.043050468 -0.0048906943
000080 0b a9 bb bb 5c ba ef ba a6 ff 4a bd 5b eb 25 bb
       -0.0057269386 -0.0018289792 -0.04956021 -0.0025317285
000090 42 81 11 bd 39 90 e9 ba 92 38 00 3c 88 8d d1 3c
       -0.03552366 -0.0017819471 0.007825987 0.025580183
0000a0 49 99 6b bc 42 f0 0f bd 31 69 9e 3c d5 d1 b3 33
       -0.014379808 -0.035141237 0.019337269 8.373505e-08
0000b0 89 48 0e be f8 51 84 a8 5d bd 36 39 19 f9 7e bc
       -0.13894857 -1.4690492e-14 0.00017427416 -0.015562319
0000c0 60 dc b9 3d 33 9e 95 bc f7 eb a6 bd 9a ae ad bb
       0.09075236 -0.018263912 -0.081504755 -0.005300355
0000d0 14 a3 55 3c 9e e3 5c bc 6e e4 73 34 8c 44 fe ba
       0.013039369 -0.013482003 2.2714241e-07 -0.0019399091
0000e0 4d 20 d9 bd eb 70 01 bd e4 5a 02 00 3e a8 2f 80
       -0.10601864 -0.031601828 2.16276e-40 -4.376622e-39
0000f0 82 87 6e bc 68 b4 36 00 79 cb 06 00 eb cd 0a 80
       -0.014558675 5.023834e-39 6.24005e-40 -9.92224e-40
000100 0e de 3d bd 69 31 40 80 a8 88 81 29 8c 42 4a 80
       -0.046354346 -5.895197e-39 5.752457e-14 -6.819699e-39
000110 46 18 c9 a8 ea 1d 3c 34 fe 4d 2b bb 4e 79 3d 3c
       -2.232601e-14 1.7519747e-07 -0.0026139016 0.011564566
000120 e3 89 8c bd f7 c4 06 00 3a 75 07 00 fa 79 b5 bd
       -0.06862237 6.2167e-40 6.84901e-40 -0.08861156
000130 6f 4e 52 80 94 10 02 80 62 b2 1f b8 b3 e1 89 80
       -7.558647e-39 -1.89618e-40 -3.8074686e-05 -1.2662429e-38
000140 09 a4 16 b8 2f 5e 57 80 0e b6 42 bd a4 c9 e9 bb
       -3.5915557e-05 -8.023475e-39 -0.047536902 -0.007134633
000150 be 26 08 bc c1 1d e3 24 0f d8 b4 bc fb 1a 76 3c
       -0.008310018 9.849596e-17 -0.022075681 0.015021081
000160 b2 c0 57 bd 5b 2f 88 9f 60 3f 4b bd 55 40 79 bb
       -0.052674003 -5.7676583e-20 -0.049620986 -0.003803273
000170 a1 cc 17 bd 19 07 57 85 43 0c 3d 3d f3 aa 74 80
       -0.037060384 -1.0110555e-35 0.04615427 -1.0714243e-38
000180 49 96 5b 80 12 9f 8f bc cd 3d 19 30 17 ed 8f bb
       -8.410942e-39 -0.017531905 5.57489e-10 -0.004392277
000190 2c 93 44 b6 79 14 02 80 3d 17 21 b7 20 79 a4 ac
       -2.9291941e-06 -1.91015e-40 -9.601758e-06 -4.674608e-12
0001a0 ed ca 44 af b1 04 3f b9 aa 5a 98 1a 80 d8 11 b8
       -1.789819e-10 -0.00018216927 6.30122e-23 -3.4772325e-05
0001b0 94 77 08 80 eb 88 4d 12 08 6d 08 b6 87 a9 02 00
       -7.7758e-40 6.485536e-28 -2.0329044e-06 2.44486e-40
0001c0 e7 7e 00 00 71 40 05 00 c9 7f 56 b6 a2 69 09 80
       4.5524e-41 4.82295e-40 -3.1962866e-06 -8.64413e-40
0001d0 ac ed 02 80 a0 44 03 00 b1 59 05 80 46 78 04 00
       -2.68932e-40 3.00124e-40 -4.91353e-40 4.10488e-40
0001e0 f0 e1 0c 00 36 0c 58 00 d1 09 3f ba 43 95 03 00
       1.183077e-39 8.085904e-39 -0.00072875345 3.29052e-40
0001f0 63 c4 0a 80 cc 89 04 00 64 41 0f 00 f9 b7 01 80
       -9.88805e-40 4.16774e-40 1.40099e-39 -1.57832e-40
000200 8d 11 09 00 e8 d5 06 80 ed 2a 0c 80 94 95 06 00
       8.32815e-40 -6.27748e-40 -1.117425e-39 6.04671e-40
000210 09 70 b1 b4 05 02 14 80 c2 7a 03 80 1c 0a 09 80
       -3.3050335e-07 -1.837434e-39 -3.19544e-40 -8.30146e-40
000220 e8 0a 40 af 48 b0 89 ba 17 65 a5 aa f7 5b 5b 96
       -1.7466173e-10 -0.0010504806 -2.9380033e-13 -1.7719698e-25
000230 0f 55 62 b5 24 8f 81 89 be 9d 20 a9 07 89 04 80
       -8.431534e-07 -3.119023e-33 -3.5663956e-14 -4.16498e-40
000240 b2 ba dd 9e 5c 7b 05 00 27 ca 02 00 a1 df da 8b
       -2.34765e-20 5.0343e-40 2.5619e-40 -8.4307025e-32
000250 b3 44 0a 80 60 cd 91 a9 c1 6a 03 bb ee 96 e6 b0
       -9.43e-40 -6.4749204e-14 -0.0020052644 -1.6777599e-09
000260 c5 af 13 be 62 ab 67 bd dc 3c 78 bc 55 64 9e bc
       -0.1442252 -0.056559928 -0.015151229 -0.019334951
000270 99 64 00 bd f4 61 c8 bc de 4e d3 3c 98 fc 87 3a
       -0.031345937 -0.02446077 0.025794443 0.0010374961
000280 34 47 3f 3d da 0c cf 3c d5 a5 07 aa e5 c0 fd 3c
       0.046698764 0.025274683 -1.2047943e-13 0.030975768
000290 83 bd 8d 3d 52 c7 4c b4 45 c0 cc 3d 2c 61 e2 3c
       0.06920912 -1.9071493e-07 0.0999761 0.027634226
0002a0 10 76 b8 b3 f8 53 62 3b 7f 75 d5 bc 45 bc 6e bd
       -8.589643e-08 0.0034534913 -0.026057003 -0.058285017
0002b0 41 05 71 3d f3 23 04 00 79 c2 ea 38 4d c9 08 00
       0.0588429 3.80238e-40 0.00011194213 8.06897e-40
0002c0 4f 6f 82 bc ff 05 11 17 c7 ab ec 3d 8c 12 0d 23
       -0.015922217 4.6859595e-25 0.115562014 7.647553e-18
0002d0 dc ba c6 3d cc fb d9 b7 5d f9 50 39 ea 50 55 3d
       0.09703609 -2.5985668e-05 0.00019929321 0.05207912
0002e0 54 6a 40 31 07 30 ae 32 5c 87 cc bc 96 70 12 3d
       2.8000118e-09 2.0278106e-08 -0.024966888 0.0357519
0002f0 12 fe 16 be 16 05 de 3b 55 77 12 3c f7 62 da bc
       -0.14745358 0.0067755086 0.008939584 -0.026658518
000300 a8 de 09 bd 91 dc 02 80 5c c3 3d ba b0 f4 f6 15
       -0.033659607 -2.62795e-40 -0.00072388886 9.974466e-26
000310 c4 86 d4 3b af 8b d5 bd 55 1a 9f bc f9 5d 85 bd
       0.006485792 -0.10427033 -0.019421736 -0.065120645
000320 30 7f 86 3b 02 77 93 00 89 0a 67 3a 86 06 a7 3b
       0.0041045174 1.354251e-38 0.00088135205 0.005097213
000330 7e 7a 9c 3b 81 03 7a bb 5e 3d 57 bd 9b aa dc bb
       0.0047753444 -0.003814906 -0.05254876 -0.006734205
000340 97 3b 59 9e 7e ce ab bb bd ba f5 3c 10 62 03 80
       -1.1500207e-20 -0.0052431216 0.02999627 -3.10685e-40
000350 ac 2f 4e 0e ad 78 05 00 e8 c7 cf bb fd 6f 00 80
       2.5414414e-30 5.02468e-40 -0.0063409694 -4.0174e-41
000360 d2 88 00 00 6f 9d 00 80 46 04 04 80 42 82 06 80
       4.9082e-41 -5.6477e-41 -3.68875e-40 -5.9774e-40
000370 af fa ac b2 59 f5 1b bc 05 75 eb bb bb 4a 02 80
       -2.0137433e-08 -0.009518945 -0.0071855807 -2.10479e-40
000380 3b c5 aa 8e f4 64 0d 00 d6 68 58 00 2f c2 0e 00
       -4.209816e-30 1.230077e-39 8.119132e-39 1.355357e-39
000390 06 ff 5e 00 3e db db b7 3c 6d 0e 00 13 ac 19 bc
       8.724022e-39 -2.6208927e-05 1.324883e-39 -0.009379405
0003a0 58 92 3a 3c c7 87 91 38 f1 d7 6e ba f0 49 0c 36
       0.01138743 6.939429e-05 -0.0009111157 2.0904663e-06
0003b0 ec 2d 17 bd 96 0a 09 3b 36 46 a1 bd fe d3 88 3c
       -0.03690903 0.002091085 -0.0787472 0.016702648
0003c0 26 29 48 bc d6 e5 e0 bc b9 76 55 bd 6a a7 ea 1c
       -0.012216842 -0.027453344 -0.052115176 1.5528097e-21
0003d0 6f 6c 08 bc 43 36 12 00 0a af 54 00 7c b9 33 3c
       -0.008326634 1.672504e-39 7.776974e-39 0.010969516
0003e0 64 58 09 00 47 55 94 3a 19 c6 73 bc 72 b8 06 00
       8.58228e-40 0.0011316919 -0.014878773 6.1718e-40
0003f0 0b 39 22 bd d3 34 c9 bc cc 69 b6 bc 28 39 29 bd
       -0.03960518 -0.024561321 -0.022267245 -0.041314274

fc3.0.bias f4 [10]
000000 a5 1d d3 3e 85 0b 45 3d bd 66 0d 02 c4 6a 93 3c
       0.41233554 0.04810669 1.0388528e-37 0.017995246
000010 a1 f2 01 bc ea a9 2a b7 f3 3b 1f bc 6f 7a 9f bd
       -0.007931382 -1.0172351e-05 -0.009718883 -0.07787024
000020 3e b4 aa bd e4 36 12 bc
       -0.0833516 -0.00892422

fc4.0.weight f4 [2, 10]
000000 ed c3 52 3e 41 36 36 3e dc 12 08 80 41 0b 05 be
       0.20582552 0.17794134 -7.4145e-40 -0.12992574
000010 b7 cd 7d 3c 8a e3 81 ba 18 b9 38 be d7 77 41 3e
       0.015490941 -0.0009909731 -0.18039358 0.18893372
000020 af cb 2d bd e0 76 86 bd 51 f9 30 3e e5 4f f9 3d
       -0.042430576 -0.06565642 0.17282607 0.12173442
000030 3f 27 02 00 34 72 43 be 50 e3 52 3d 7f 9b 01 ba
       1.9775e-40 -0.19086534 0.051486313 -0.000494413
000040 1d 47 3d be 67 15 d4 3d ec e0 c6 3d f5 bd 81 be
       -0.18484159 0.10355645 0.09710869 -0.25340238

fc4.0.bias f4 [2]
000000 0b 87 4b 3f d5 d7 66 bf
       0.79502934 -0.90173084
