Faza III/predikcija_detekcija/model/Model_sada.pth (torch, 17263 bytes, 8 tensors)

fc1.0.weight f4 [60, 11]
000000 4b 45 99 9c 0b 8c bb a8 ac 2a 78 80 c9 67 12 80
       -1.0142603e-21 -2.0821905e-14 -1.1035567e-38 -1.69027e-39
000010 d0 0e c1 a5 24 60 13 23 62 f5 03 ac ae 35 b7 a9
       -3.34902e-16 7.9892445e-18 -1.8752435e-12 -8.1361445e-14
000020 3e a1 6b a1 4c c9 0c a5 64 1b 9a a0 d7 77 92 3e
       -7.98345e-19 -1.2211266e-16 -2.610674e-19 0.28607056
000030 0a e9 fb 3e d3 bf 80 3e 7c b0 16 3d 94 e8 7f 3d
       0.49201232 0.2514635 0.036789402 0.062477663
000040 09 53 5b 3e af 2f 42 3e fb d0 18 be 98 49 2d 3f
       0.21418394 0.18963502 -0.1492347 0.6769042
000050 5a 0b a5 3e d9 85 5f 3e 4c f7 47 be 4e 82 60 bd
       0.32235223 0.21828403 -0.1952793 -0.05481177
000060 98 c4 9b be 82 f8 1f bd f8 4c 83 3e a8 ab 43 bc
       -0.30423427 -0.039055355 0.2564466 -0.0119427815
000070 de 43 90 3d df 86 27 bd f9 64 1e be ff df 28 be
       0.07044195 -0.040900107 -0.15468206 -0.16491698
000080 47 4a 0c be a7 9a da 3d 42 24 ef 3b b2 c9 ca 3c
       -0.1370021 0.10674029 0.0072980234 0.024754379
000090 77 57 00 3c b9 fd 12 bb 3b 61 19 3d 73 b7 0f bd
       0.007833353 -0.0022429063 0.03744624 -0.03508706
0000a0 f9 72 a1 bd c7 ab 2d 3d ed 1c 0d 3b cd ce ce 3c
       -0.078832574 0.042400148 0.0021532134 0.025245095
0000b0 fe b3 58 be 63 a7 3e be e0 87 7f be 0a 70 6b 3e
       -0.21162412 -0.1861854 -0.24954176 0.22991958
0000c0 50 27 4c bd 60 c5 6b be 9e 3e e3 bd 86 31 28 3c
       -0.04984218 -0.23024511 -0.11095928 0.010265714
0000d0 90 57 36 bf f9 89 7d be dd 7a 0e be 4a e6 2d 3d
       -0.7122736 -0.24759664 -0.13914056 0.04245595
0000e0 f7 b7 44 bd 0a 2b a0 bc c7 3f 3b 3d ad 1d 85 be
       -0.048027005 -0.019551773 0.04571512 -0.25999203
0000f0 e6 b9 14 3d 21 7e 98 3c bb d1 6c 3e 20 20 a9 bc
       0.0363101 0.01861483 0.23126881 -0.020645201
000100 8b aa 4b bb 3c 09 82 bd 47 c9 07 be b3 d3 be 3e
       -0.0031076993 -0.063494176 -0.13260375 0.3727089
000110 14 a2 d4 3b 50 12 50 3d c2 3f 72 3e f9 76 c8 3d
       0.006489048 0.050798714 0.23657134 0.09788317
000120 19 a2 b8 3d 37 72 59 be dc 99 f9 3e ba 1b 86 3e
       0.09015293 -0.21234976 0.48750198 0.2619303
000130 d3 87 54 3d ef ea 65 3e d0 fb c3 3e 0b e1 2c 3e
       0.051887345 0.22452901 0.38278055 0.16882722
000140 b3 43 69 3e 6b 9d 02 3d 3c 64 50 3e 86 65 cc 3e
       0.22779731 0.031888407 0.20350736 0.39921206
000150 51 ac 32 bd 1e ce 08 3f 0f ea b8 3e 6d da f1 3e
       -0.043621365 0.5343951 0.36116073 0.47236958
000160 87 74 13 3e 90 00 f5 be 48 11 28 be ed 81 3f 3e
       0.1439992 -0.47851992 -0.16412842 0.18701907
000170 19 61 05 3e 08 1e cf bd 34 39 b4 3c 51 b7 2a 3e
       0.13025321 -0.1011315 0.021999933 0.16671492
000180 82 61 11 bf fb 87 8e be 40 05 01 bf 4e af 33 3e
       -0.5678941 -0.2783812 -0.50398636 0.17547342
000190 e5 fd 72 bc ae 58 96 be ce e6 81 bb 79 a6 3a be
       -0.014831041 -0.29364532 -0.0039642816 -0.18227567
0001a0 a3 5e 51 bc 74 48 31 be 36 af 8c 3e 27 05 8d be
       -0.012778911 -0.17312795 0.27477425 -0.27542993
0001b0 1d cc 20 be 63 cb 24 be 56 bf b8 3d fe 4b ae 3e
       -0.15702863 -0.16093211 0.090208694 0.34042352
0001c0 bc 5f 86 3e 30 bb 8d 3e 32 b3 8e 3e a3 96 dd bc
       0.26244915 0.27681875 0.2787109 -0.027049368
0001d0 67 4a 9e 3e bf 76 17 bd af 22 24 3f cd 3c 18 3f
       0.3091614 -0.03697848 0.6411542 0.59467775
0001e0 db 8b fa 3d e0 ad 2f 3e ed e2 e3 bd 71 30 42 be
       0.122337066 0.17156172 -0.11127267 -0.18963791
0001f0 d8 f1 e9 3c e7 08 48 bd c7 7f 1f be e9 b5 89 bd
       0.028557703 -0.048836615 -0.15576087 -0.0672415
000200 15 b8 a0 bd 5c 2f e2 bd 90 60 06 be 0f 45 40 3c
       -0.07847611 -0.11044189 -0.13122773 0.011735215
000210 03 72 86 bc c0 7f 1c be 90 24 ed bd 1c 69 30 be
       -0.016411787 -0.15283108 -0.11579239 -0.17227596
000220 09 c5 91 3d 0f cb 0a bd 2c 32 b3 3d 4f 8c 3d 3c
       0.071176596 -0.033885058 0.08749804 0.011569097
000230 17 8b 54 be ad c4 ee bd 4f cb 02 be d4 56 84 3e
       -0.20756184 -0.11658607 -0.12772869 0.25847495
000240 86 ff 56 3d cf fd 06 3d e1 a0 c0 bd 93 e6 07 bc
       0.05248978 0.032956894 -0.09405685 -0.008294719
000250 ce 69 bf 3c 26 57 a3 3c f8 d7 60 bd 4a 8a 28 3d
       0.023365881 0.019939017 -0.054893464 0.041147508
000260 57 70 17 3d 54 f4 c0 3c dc 1a 47 3e 9b d4 14 3d
       0.03697237 0.023554005 0.1944384 0.03633557
000270 b3 f3 a2 3b b7 ed 8f bd 09 20 c6 bb 7c 0a 19 3c
       0.004972899 -0.070277624 -0.0060462994 0.009340879
000280 64 18 46 3c 46 30 2a bd 99 c1 b6 3c 70 6d e2 3c
       0.012090776 -0.041549943 0.022309111 0.027640074
000290 76 24 d2 3c 64 80 9d be 69 55 e8 3d 0b af 08 3e
       0.025652152 -0.30762017 0.11344416 0.13348024
0002a0 f2 0c fb bd 60 54 14 3e d7 27 f8 bc 42 34 52 bc
       -0.122583285 0.14485312 -0.030292435 -0.012829842
0002b0 1a b5 09 be 43 96 1f 3e 4a 90 17 3e 21 90 18 3e
       -0.13447991 0.15584664 0.14801136 0.14898731
0002c0 ce 38 2f 9a a9 34 0a 9c 5c 1a 8d 81 41 b2 48 00
       -3.6235038e-23 -4.572843e-22 -5.1833044e-38 6.676101e-39
0002d0 7b 89 07 00 44 53 0e ac bc 22 8e 80 8a 96 03 ab
       6.92167e-40 -2.0225635e-12 -1.3053101e-38 -4.6749464e-13
0002e0 4c 6f ed 2a 89 b6 31 00 5d 5a 03 00 af 25 55 3e
       4.2176885e-13 4.56542e-39 3.07923e-40 0.20815156
0002f0 50 d4 86 3d a5 3b 92 bc ee bb a0 3d 39 81 f8 3d
       0.06583464 -0.017850706 0.07848345 0.12134022
000300 5d aa 8c bd 5e f8 b8 3c 39 98 58 3e d9 43 b6 3c
       -0.06868432 0.022579368 0.21151818 0.02224915
000310 9f 2a 1d 3d 65 3e 05 3b ad 5a 5a 3d 85 32 c4 3e
       0.038370725 0.002033138 0.05330913 0.38319793
000320 16 58 17 bd a8 4e f1 3d ae fb 94 bc 16 86 6c 3e
       -0.03694924 0.117825806 -0.018186416 0.23098025
000330 98 8c ab 3e 28 d7 6b 3e 73 f7 d4 3e 41 1a 1d 3f
       0.33505702 0.23031294 0.4159504 0.61368185
000340 9e 40 77 3e 26 25 8c 01 24 81 01 90 46 1a 17 81
       0.24145743 5.1481183e-38 -2.554025e-29 -2.775317e-38
000350 cf 7d 6b 80 15 ab 8d 9f b0 a4 36 a5 2e 44 ad 1c
       -9.87153e-39 -5.9998854e-20 -1.5841782e-16 1.1465804e-21
000360 b7 e3 33 a5 b6 17 af a2 99 0d 87 01 8a fe 53 00
       -1.5602928e-16 -4.745895e-18 4.961068e-38 7.713658e-39
000370 d7 ea 9a be c8 32 e9 3d 52 d7 b8 bd 34 91 93 3d
       -0.30257294 0.11386639 -0.09025444 0.0720543
000380 6a 8b 80 3e 18 4c 46 3d 07 2b 43 3d 27 36 df 3d
       0.25106364 0.048412412 0.047648456 0.108990006
000390 fa 90 1e 3f 34 bf c7 3e f8 ee af 3d 05 e4 87 3d
       0.61939967 0.39013064 0.085905015 0.06635288
0003a0 a0 5b b8 be 12 34 bc be a2 51 39 3e 82 9a 8f 3e
       -0.36007404 -0.36758476 0.18097547 0.28047568
0003b0 78 e3 ca be 44 4f a6 be d1 f8 4b 3e b0 98 32 bf
       -0.3962667 -0.3248235 0.19919135 -0.6976423
0003c0 16 e7 29 bf c3 ed b8 bd 45 d7 8a 3e 1a 32 8b bd
       -0.66368234 -0.090297244 0.27117363 -0.067966655
0003d0 2b 41 bc 3d 92 16 6f 3e 14 ed 3b be 0f 4b f5 3d
       0.09192117 0.23348454 -0.18352157 0.11977207
0003e0 08 46 38 3d 92 2c 25 be 67 ee a5 3d 9a ee 51 3d
       0.044988662 -0.16130283 0.08102112 0.05125294
0003f0 db 1f 46 bc 68 5b 2f 3d c9 05 62 3e 0b 74 38 3c
       -0.012092556 0.04281178 0.2207252 0.011258136

fc1.0.bias f4 [60]
000000 f0 c7 31 83 05 a8 e6 3b e8 a4 56 3d fa c6 c7 3b
       -5.224514e-37 0.0070390725 0.05240336 0.006096718
000010 b2 16 50 bc 41 1c 56 3d 50 9a d7 3d f5 ca 0c 3d
       -0.0127007235 0.05227304 0.1052748 0.034373242
000020 e3 03 e5 3c 0b dd d0 3d 3a 7d df bc 7e 1a e7 bd
       0.027955955 0.101984106 -0.027281392 -0.1128435
000030 57 08 82 3d 85 78 37 3c 22 d1 32 3c 7c 35 97 bd
       0.06349247 0.011198168 0.010914119 -0.07383248
000040 5c 71 11 00 27 69 30 bd 1d e7 db bd eb 85 b8 1c
       1.601869e-39 -0.04306903 -0.10737441 1.2210716e-21
000050 68 30 63 be e8 34 b5 3d b0 6e a8 bd b4 9d 06 3d
       -0.22186434 0.08847982 -0.08224237 0.03286524
000060 54 0f 8d 81 fc 91 44 3e fa 1c b3 bd f0 d3 11 3e
       -5.1817215e-38 0.19196314 -0.08745761 0.14241004
000070 e4 76 ce 3c a9 60 87 3d ad 02 75 3d e8 f3 df 3d
       0.025203176 0.06610233 0.059817005 0.10935193
000080 2b ae 2c 3b 41 21 16 a4 07 64 d7 3c bb 7a 60 3e
       0.002634893 -3.2554232e-17 0.026292814 0.21921818
000090 2b de 80 3e a4 b7 72 80 ef 17 b8 b9 dd bd 2f 3e
       0.251695 -1.0535124e-38 -0.00035113047 0.17162271
0000a0 4f cc 72 be bf 9b f3 b8 e3 6f c6 3b fd 1b 0f bd
       -0.2371075 -0.00011616153 0.0060558184 -0.0349388
0000b0 63 8e a4 bd d3 df 8a 3e 37 e6 29 be 98 c3 21 3e
       -0.080349706 0.2712389 -0.16591726 0.1579727
0000c0 2a 3c f6 bd 8d c2 1b be 6d 34 47 3d ae 37 46 3d
       -0.12023194 -0.15210934 0.04863398 0.048392944
0000d0 02 7a b4 bd 1d d3 4c 3d 41 6d f3 bb 2c 16 7b 3e
       -0.08812334 0.05000602 -0.0074287956 0.24520177
0000e0 c8 8f 57 3b 1d 5d 3d 3d d2 08 d4 3d 73 eb 91 a6
       0.0032892097 0.046231378 0.10353245 -1.0125215e-15

fc2.0.weight f4 [40, 60]
000000 1d f4 36 00 d7 45 0e 3e ac 59 c4 bd c3 a8 84 3d
       5.046688e-39 0.1389383 -0.09587416 0.06477501
000010 4c 85 de 3c ab df 5b bd ee fd 0c 3e 1e 06 e4 3d
       0.02716317 -0.053680103 0.13768741 0.11133979
000020 ce 86 36 bd c3 13 23 3d 89 dc d9 3d 12 4f a4 3d
       -0.044562154 0.039813768 0.10637767 0.08022894
000030 67 73 de bd 16 13 17 3e 7f d9 c0 3d 30 54 fa 3d
       -0.10861855 0.14753374 0.09416484 0.12223089
000040 3a 81 12 81 bb a2 22 3d dc ec 1c 3c c8 ff 05 81
       -2.690868e-38 0.039705973 0.009577956 -2.4611756e-38
000050 67 93 07 3e 0e 02 ee bd 0a a6 62 bd 94 07 42 bd
       0.13239823 -0.11621486 -0.05533413 -0.04737051
000060 2e 05 28 80 2b d4 27 be 88 0a f9 3d 10 f5 61 3a
       -3.675278e-39 -0.1638953 0.12160212 0.0008619586
000070 b1 f2 5c 3d 3b dc 57 bd 35 18 b4 3d 35 0b 53 3e
       0.053942386 -0.052700263 0.087936796 0.20609744
000080 1b 0c ed 3d 80 98 0f 81 e5 26 f4 bd c1 9b 39 3e
       0.115745746 -2.6374365e-38 -0.11921481 0.18125822
000090 24 31 c6 bd 40 7e 04 81 a4 f5 d4 bb f0 53 e1 bc
       -0.096773416 -2.433515e-38 -0.006499009 -0.027505845
0000a0 3d 78 e1 3d 25 9e 70 bc 3d 07 57 bd fd 7a 94 3c
       0.11009262 -0.014686142 -0.052497137 0.018125052
0000b0 82 7e 8d 3d 6d b5 75 bc 0c 33 01 be 97 07 ec 3d
       0.06908895 -0.014996869 -0.12617129 0.11524885
0000c0 e4 e1 88 3d a5 79 19 3e d4 8d df bd 16 c7 04 3e
       0.0668371 0.1498781 -0.109157234 0.1296657
0000d0 91 57 2e 3a f8 af 5e 3d 9f 73 84 bb 27 dd 8b 3c
       0.00066506217 0.054367036 -0.0040421034 0.017073227
0000e0 b4 9b 63 3d 39 69 15 bd 98 b5 73 3c 3d 3b 1b 80
       0.055568412 -0.0364773 0.014874838 -2.500809e-39
0000f0 10 bc 01 00 12 ce 9e ab 44 58 60 b6 86 b4 92 81
       1.593e-40 -1.1283771e-12 -3.3429978e-06 -5.389097e-38
000100 81 91 d6 00 74 39 67 81 74 a4 fc b2 86 61 3b b6
       1.9704993e-38 -4.246922e-38 -2.9411446e-08 -2.7921938e-06
000110 5d 7a ec b8 30 7f 15 a0 80 94 54 b9 67 f5 3c 00
       -0.00011276149 -1.2662874e-19 -0.00020273216 5.598164e-39
000120 81 69 ea 00 02 85 8a 81 dc eb 14 00 41 ce df 00
       2.1527354e-38 -5.088405e-38 1.92132e-39 2.0553306e-38
000130 b8 99 f8 00 10 0f ee b8 b3 f5 30 b7 a6 ab 2b 80
       2.2830347e-38 -0.0001135153 -1.0547624e-05 -4.010502e-39
000140 e4 00 6c b8 d8 91 b1 b9 ce 58 f8 87 92 0e 8f b5
       -5.6267614e-05 -0.00033868733 -3.7367087e-34 -1.0658571e-06
000150 e6 17 6e 00 e9 96 13 8b e3 28 61 b8 f6 df 2f 9a
       1.0110478e-38 -2.8424702e-32 -5.368226e-05 -3.6370066e-23
000160 43 f5 92 81 19 ed cf 00 d5 c5 4e b5 8e d7 90 00
       -5.3983863e-38 1.9095002e-38 -7.7028864e-07 1.3301638e-38
000170 c0 e3 0f 00 90 b3 ab 81 49 00 57 b4 b4 f9 cb 80
       1.459234e-39 -6.307314e-38 -2.0023539e-07 -1.8732182e-38
000180 85 55 97 b6 8f d3 21 00 02 5c 04 80 59 d9 5f b8
       -4.5101065e-06 3.106464e-39 -4.00348e-40 -5.3369764e-05
000190 5c c8 28 b0 84 24 fa 00 6e 45 6b b1 d0 38 81 b8
       -6.140277e-10 2.2971973e-38 -3.4236467e-09 -6.1617815e-05
0001a0 6e aa 88 b8 88 07 88 b2 bb 09 4e b8 e3 97 35 8b
       -6.51673e-05 -1.5835909e-08 -4.912329e-05 -3.49736e-32
0001b0 ed 9f 6a b7 38 da d0 af db 37 8d b2 7b f5 a4 b8
       -1.39847225e-05 -3.7990033e-10 -1.643996e-08 -7.865854e-05
0001c0 f9 4a 8e b6 c3 b1 e8 80 0f c9 7a b7 a3 b0 dd 9b
       -4.2406577e-06 -2.1369604e-38 -1.4947974e-05 -3.6675532e-22
0001d0 1c ac 80 00 14 52 c9 b4 c0 b6 ae b8 d5 37 21 80
       1.1816685e-38 -3.7498887e-07 -8.3310064e-05 -3.0506e-39
0001e0 2d 35 68 00 30 9e a4 bd 92 29 e1 bd 96 e1 87 bd
       9.569967e-39 -0.08037984 -0.10994257 -0.06634824
0001f0 43 22 07 3e c2 b9 b4 bd f4 2a 37 bd 21 1a 46 3c
       0.13196664 -0.08824493 -0.044718698 0.012091191
000200 79 18 99 3c bb 40 87 bc 27 8c 88 3d 9b 5e ba 3d
       0.018688427 -0.016510358 0.06667357 0.09100076
000210 08 3d 18 3d 06 7f 2c bd 3d 52 6f bd 5c b9 23 be
       0.03716758 -0.042113326 -0.058428038 -0.15988678
000220 74 02 17 00 cc 0b aa 3c 2d d9 7a bb 4e 99 18 01
       2.113096e-39 0.020757578 -0.003827642 2.8027982e-38
000230 69 86 af bd e1 7f 94 3d 33 69 f5 bd 40 7e 41 bc
       -0.085705586 0.072509535 -0.11982956 -0.0118098855
000240 b3 87 f5 00 53 94 f6 bc f0 86 0c 3d a5 09 03 3d
       2.2548376e-38 -0.030100023 0.034308374 0.03199162
000250 fa b1 c0 3c 53 e8 b8 3d 99 cc 76 bc 18 dd 1c be
       0.023522366 0.09028687 -0.015063428 -0.15318716
000260 ef 6d d9 bd b0 ac 2b 01 1a 14 d6 3d 9d 88 60 bd
       -0.10616671 3.1531637e-38 0.10453053 -0.054817785
000270 d0 a0 f7 3d 34 88 0a 01 60 29 d7 3c a8 c4 d1 3d
       0.120912194 2.5444318e-38 0.026264846 0.10242587
000280 3b 94 58 3c 56 a7 cd 39 a7 0d 8e 3c aa ad c3 3d
       0.013218935 0.00039225322 0.017340494 0.09554608
000290 db e7 9d 3c 52 3f c6 3d 42 c4 ed 3d c3 5d f0 3a
       0.019275596 0.09680046 0.11609699 0.001833849
0002a0 72 d7 f0 3c e0 2f 19 bd 6a d0 48 bc 21 af ac bd
       0.029399607 -0.037399173 -0.012256721 -0.08431841
0002b0 52 33 fa 3a fd 67 27 3d 14 26 fe 3c ed 56 30 be
       0.0019088781 0.040870655 0.031024016 -0.1722066
0002c0 00 f9 77 bd 41 0a c8 bd b9 01 e3 3d 1d 88 6f 00
       -0.0605402 -0.09767581 0.11084313 1.0242568e-38
0002d0 9a fe 0f 01 32 43 08 b8 f3 c6 1a 00 ef 0b 62 35
       2.644762e-38 -3.2487507e-05 2.459092e-39 8.4208926e-07
0002e0 83 49 3f ba 33 5e 21 bd 84 ee 39 00 19 3b c2 3b
       -0.0007297026 -0.039396476 5.320187e-39 0.005927455
0002f0 6e e2 6f 3c 31 e5 21 3d 4e 0f 0b bb bf 22 ba b8
       0.014641387 0.039525215 -0.002121884 -8.875643e-05
000300 2f 38 15 00 37 74 06 81 38 1e 76 81 9f fe 01 00
       1.9487e-39 -2.4695293e-38 -4.5204745e-38 1.83176e-40
000310 99 0e 98 81 80 8c a0 bc c0 b6 2f bb 5a 5d 1b 81
       -5.585693e-38 -0.019598246 -0.0026811808 -2.853598e-38
000320 1d 6b 14 b9 ae 79 ee bc 30 b6 bf ba 35 ae af 38
       -0.00014154283 -0.029110756 -0.001462644 8.377099e-05
000330 8b 51 a3 81 04 c3 9c 37 af 3f f0 3c 0c 62 cf ba
       -5.999375e-38 1.868746e-05 0.029327242 -0.0015822067
000340 24 0d b0 38 7a 42 d2 b0 d8 cf 82 00 0f 0f e1 37
       8.3947816e-05 -1.5298405e-09 1.2013175e-38 2.6829102e-05
000350 ee 5b 06 01 72 8d 05 00 ea bd 9d 01 41 29 83 38
       2.467787e-38 5.09918e-40 5.7945205e-38 6.254251e-05
000360 58 66 98 ba c5 ae 0a 01 c8 43 26 00 39 ae e6 bb
       -0.001162718 2.5471988e-38 3.514064e-39 -0.007039812
000370 4b 0f 7e 00 20 04 0f b1 6e d4 82 80 ec 43 d6 b8
       1.1576759e-38 -2.0811584e-09 -1.201482e-38 -0.000102169666
000380 9e 35 f9 bc ea d2 68 b9 cd d2 92 36 0a 03 11 bb
       -0.030421074 -0.00022203816 4.3756795e-06 -0.0022127056
000390 67 86 11 3d ab 3d 22 37 96 71 de bb 9c 7c a1 3b
       0.035528567 9.670311e-06 -0.006788443 0.0049281847
0003a0 39 40 c5 bb 7c 20 10 80 a9 00 80 bc 53 27 0a 39
       -0.006019619 -1.481021e-39 -0.015625315 0.00013175355
0003b0 f8 b9 14 80 95 11 0d bb f6 a5 36 3c 6a 68 6b 00
       -1.903423e-39 -0.0021525372 0.011147967 9.863855e-39
0003c0 cf 0e 13 80 3d 69 df 3d 79 8e df 3d 99 8d 62 bd
       -1.750187e-39 0.109087445 0.109158464 -0.05531082
0003d0 69 e0 09 3d 1a 1c 9b 3d 6f ee 57 bd 51 f9 47 bc
       0.03366128 0.07573719 -0.052717622 -0.012205438
0003e0 37 12 10 bc 62 41 66 3d e1 54 da bd ac 8d ab 3d
       -0.008793405 0.056214698 -0.106607206 0.08376631
0003f0 78 1f 51 bd e2 28 e2 bd f6 4e 7b bd b8 b4 19 be
       -0.0510554 -0.11042954 -0.0613546 -0.15010345

fc2.0.bias f4 [40]
000000 7d 41 a2 3d 09 db 82 81 4c dd 9a bd d8 45 33 b6
       0.07922647 -4.806876e-38 -0.0756174 -2.6713733e-06
000010 0c 71 82 bc 2b 94 23 80 00 d5 c9 bd a4 b9 36 3c
       -0.015923046 -3.267395e-39 -0.0985508 0.011152659
000020 1b 55 1f bc fc 29 c8 bd bb e5 20 b2 d9 87 73 b6
       -0.009724881 -0.09773633 -9.36546e-09 -3.6288895e-06
000030 53 c9 85 bd 89 65 a8 3d ec ca 31 23 1d 85 06 81
       -0.0653254 0.08222491 9.63816e-18 -2.4707417e-38
000040 58 4e f7 bc b8 3f ab bc 2d 02 37 ba d8 44 a7 3d
       -0.030188724 -0.020904407 -0.000698122 0.08167428
000050 49 32 61 bb 9a db 2b 3d db 81 50 80 3e 14 26 00
       -0.0034362248 0.041957475 -7.393423e-39 3.49701e-39
000060 91 00 47 3d a2 70 a4 bd 31 08 4a 3d ab 5d 1a 81
       0.048584525 -0.080292955 0.04932422 -2.8352536e-38
000070 f4 b3 0d b9 d4 29 80 3b be fa ab 3b 9b 33 f5 bc
       -0.00013513846 0.0039112363 0.0052483967 -0.029931834
000080 28 a1 c5 ba d0 78 1d bd 53 ca a9 bd 20 9c 1b 3c
       -0.0015077936 -0.038445294 -0.082905434 0.009497672
000090 a7 a2 19 00 9a 11 41 bc f1 ca a3 bd 81 a3 14 00
       2.354236e-39 -0.011783982 -0.079976924 1.895364e-39

fc3.0.weight f4 [10, 40]
000000 0d dd f6 bd 65 2b 3a 00 e4 1d d5 3c e6 be 23 b3
       -0.12053881 5.342026e-39 0.02601523 -3.8125016e-08
000010 11 e3 a8 bd 45 48 fc 80 5f b3 b8 3d 28 7d b2 bd
       -0.082464345 -2.316847e-38 0.09018587 -0.08715278
000020 02 48 13 3e 50 a1 50 bd d1 c5 b9 3d f5 b8 99 01
       0.14382938 -0.05093509 0.090709336 5.6468724e-38
000030 c4 73 a6 3c fc 9a b1 bd 2b 7a 56 3c c7 0e 77 00
       0.020318873 -0.08672139 0.013090651 1.0933725e-38
000040 89 50 b3 3d 66 6c e6 3d 3e 1a 10 3e 55 d1 8f 3d
       0.08755595 0.11251144 0.1407251 0.07022349
000050 63 15 98 bd 70 c6 09 bd dc ff 62 80 5d 44 24 80
       -0.07425954 -0.03363651 -9.091664e-39 -3.330602e-39
000060 d8 ef fe 3d 93 e8 de 3c 43 97 86 3d f4 31 2a 00
       0.1244809 0.02721051 0.0657182 3.87501e-39
000070 59 74 3f 3d 7b c3 c7 bb c5 6e 24 3d f0 98 47 bd
       0.046741817 -0.006096301 0.0401447 -0.048729837
000080 db 06 da ba b1 af ca bd 3f 66 0c 3e a3 bc c9 bb
       -0.0016634123 -0.09896792 0.13710879 -0.0061565205
000090 85 e3 8d 01 cb 95 0e 3e 0d e9 16 bc e1 b0 04 81
       5.2121694e-38 0.13924329 -0.009210837 -2.4371475e-38
0000a0 9e 71 10 00 2c f2 22 80 72 30 2d 80 ae 07 0d 01
       1.510126e-39 -3.209282e-39 -4.149976e-39 2.590312e-38
0000b0 3a 37 77 80 3f 44 1f 80 3d 38 6a 00 53 e2 18 80
       -1.0948236e-38 -2.871382e-39 9.754737e-39 -2.285242e-39
0000c0 c0 06 3d 80 5e bb 22 80 91 bc 40 00 5e b3 90 01
       -5.604387e-39 -3.189622e-39 5.945117e-39 5.3154625e-38
0000d0 1c f1 87 81 f0 d4 00 80 b8 06 02 81 1a 40 71 05
       -4.9937143e-38 -7.6388e-41 -2.388205e-38 1.1343539e-35
0000e0 44 30 f3 80 02 cc 8f 01 6b 79 92 01 f9 1b 10 00
       -2.233334e-38 5.282264e-38 5.3806156e-38 1.479403e-39
0000f0 09 6f 92 81 68 fe 2f 02 7e ea 72 00 91 c5 fb 06
       -5.379126e-38 1.292998e-37 1.0553367e-38 9.4706004e-35
000100 f9 aa f3 80 8d 17 1d 00 49 4b 01 8a eb 3f 18 80
       -2.2377359e-38 2.671678e-39 -6.225284e-33 -2.226981e-39
000110 f6 8f 3d 00 45 c0 8a 01 84 48 0c 80 8d 2c 9e 81
       5.653609e-39 5.0969087e-38 -1.12804e-39 -5.810396e-38
000120 02 1d 8d 81 b6 56 8f 01 31 02 6e 80 56 d0 03 01
       -5.1836844e-38 5.265433e-38 -1.0102691e-38 2.4210374e-38
000130 3b 7d 21 80 39 16 2c 00 bf f5 cd 82 57 0c 90 84
       -3.075496e-39 4.048734e-39 -3.0263094e-37 -3.386557e-36
000140 1a 7f da bd 90 ba 57 00 4a fc 8e 3d 1e 19 22 80
       -0.10668774 8.056614e-39 0.06981714 -3.131417e-39
000150 08 db 87 bd 41 e5 70 80 9c 3f 26 3c d9 30 9d 3d
       -0.06633574 -1.0367816e-38 0.010147002 0.076753326
000160 f6 b9 0c 3e da 16 2c 3c a0 5f 96 01 c2 b2 05 01
       0.13742813 0.010503495 5.5238513e-38 2.4556494e-38
000170 d7 49 14 be 5c 16 1a 3e 38 3f 91 01 d7 c2 ff 80
       -0.14481293 0.15047592 5.33553e-38 -2.3487947e-38
000180 48 ee da bd 2f 4d ad bc 95 82 0d 3d b9 14 c9 bd
       -0.1068998 -0.021154968 0.03454836 -0.09818406
000190 e8 9d 0d be be 4a 3b 80 78 ba d0 05 88 23 05 81
       -0.13829768 -5.445107e-39 1.9628724e-35 -2.4453734e-38
0001a0 96 7a c2 3d 00 7c 94 bd 8b d4 31 86 91 6d 64 00
       0.09496038 -0.072502136 -3.3446152e-35 9.222855e-39
0001b0 83 14 f7 00 8f 01 0e 00 56 82 9b bd e4 06 02 01
       2.2690726e-38 1.286256e-39 -0.07593219 2.3882173e-38
0001c0 8d c8 a6 bd d8 6d cf ba 0f 62 f1 bd 1f 8d 87 81
       -0.08143721 -0.0015825583 -0.11786281 -4.9793667e-38
0001d0 a2 c6 18 80 1b 3c 28 3d 40 8f 72 3d cf 53 7d 80
       -2.275308e-39 0.041072946 0.059218645 -1.1509502e-38
0001e0 48 ce 89 81 c6 c4 74 00 28 fe 2e 00 73 7c 1b 00
       -5.062185e-38 1.0723507e-38 4.315607e-39 2.524202e-39
0001f0 59 4f 73 80 c1 b1 61 00 d4 64 06 81 f3 d9 06 80
       -1.0589547e-38 8.971809e-39 -2.4684254e-38 -6.29198e-40
000200 76 ed 23 80 7c 0a a0 01 f2 91 16 80 89 eb 19 01
       -3.299427e-39 5.878976e-38 -2.072736e-39 2.827065e-38
000210 31 d2 65 00 0a ac f9 80 10 0b 08 81 6d 57 8c 80
       9.350788e-39 -2.2928755e-38 -2.4987192e-38 -1.2888332e-38
000220 e3 a5 b1 88 bf b6 65 80 7c 1f 21 80 e5 6d 10 00
       -1.06918e-33 -9.340942e-39 -3.041866e-39 1.50879e-39
000230 7c 35 5c 80 1a a0 17 80 f5 c7 12 88 97 1b 1d 80
       -8.468052e-39 -2.16965e-39 -4.4170325e-34 -2.673127e-39
000240 12 2a 13 80 57 35 28 80 15 26 0f 00 a6 c8 23 00
       -1.759966e-39 -3.692555e-39 1.391194e-39 3.286221e-39
000250 b1 ce 21 00 41 91 09 00 b9 c6 22 80 ca a6 6b 80
       3.104718e-39 8.78627e-40 -3.193695e-39 -9.886231e-39
000260 4f 5d 1a 80 c5 cd 26 80 d4 e2 1c 80 f9 bc 46 08
       -2.421196e-39 -3.563565e-39 -2.652764e-39 5.9805594e-34
000270 e0 a2 25 00 c6 76 91 81 82 a5 4f 80 cc ae ef 80
       3.456342e-39 -5.343502e-38 -7.314377e-39 -2.2011389e-38
000280 62 fe 20 3e 16 ac 61 3b 48 da 14 be dc 38 15 3a
       0.1572204 0.0034434847 -0.14536393 0.00056923716
000290 0a 81 b2 bd e1 fa 3b 0a eb 2b 16 be 1e 70 26 be
       -0.087160185 9.0509076e-33 -0.14665191 -0.16253707
0002a0 11 01 dc bd d0 1e 38 bb d9 f7 c5 3c 8b 12 81 39
       -0.10742391 -0.0028094538 0.024166035 0.00024618613
0002b0 eb 7b f1 3d 7a 28 ef bd b9 d7 1d 85 e0 4c 8c 01
       0.117912136 -0.11677642 -7.4217265e-36 5.153819e-38
0002c0 20 04 b7 3d ac 32 58 bd 05 61 34 bb 3f e1 20 3e
       0.08936334 -0.0527827 -0.0027523648 0.15710925
0002d0 ba 96 1b 3e 73 fa 0c 3e a0 35 34 00 4f 5b aa 37
       0.15194216 0.13767414 4.794683e-39 2.0308098e-05
0002e0 0a a1 71 3c 8b f3 f0 3d 3c 31 50 3e e2 77 5c 35
       0.014747867 0.11765202 0.20331281 8.213084e-07
0002f0 15 7c 9e a3 0e fe 85 3d 61 c3 49 3d 79 e5 bf bd
       -1.7182945e-17 0.06542598 0.049258593 -0.0936994
000300 c2 d3 c5 bd 9c 23 d5 3c d3 95 9a 3d 9a d9 51 3d
       -0.0965953 0.026017956 0.07548108 0.05123291
000310 1c 68 09 00 b5 71 27 bd c4 b6 47 3d 9d 7f 68 80
       8.63867e-40 -0.040879924 0.048758283 -9.59667e-39
000320 df 78 0b bc 0d 59 7c 00 38 30 83 3d c3 0e 66 00
       -0.008512705 1.1419547e-38 0.06405681 9.372516e-39
000330 44 13 63 3d ed 13 46 80 65 ed 71 bc 9c 74 b6 3d
       0.055438295 -6.435633e-39 -0.014766072 0.0890896
000340 de 53 fe 3d 37 71 4e 3c 4b ea 10 3d 85 31 66 80
       0.1241834 0.012600235 0.03537969 -9.384985e-39
000350 f3 a1 ad bd 61 7a f8 bc 39 c5 70 bc 30 94 92 01
       -0.08478155 -0.030331792 -0.014695459 5.384457e-38
000360 28 76 c9 bd 48 dc da bd d1 d8 81 bd 6c bf 8a 3d
       -0.0983699 -0.106865466 -0.063401826 0.06774792
000370 06 13 e9 bd e1 ed 13 80 c6 4c 0e 81 a1 b2 01 81
       -0.113805816 -1.83021e-39 -2.6136363e-38 -2.3821718e-38
000380 c4 48 c3 39 3c 13 00 3e 5d 4f 9c 01 a5 7b 6a 85
       0.00037247513 0.12507337 5.741923e-38 -1.1025337e-35
000390 c7 75 09 3c a7 3b 04 00 41 f5 bd 3d 46 0e 01 80
       0.008389897 3.88741e-40 0.09275294 -9.6956e-41
0003a0 2c b6 50 3d c9 23 00 3e 10 5a bb bc 2c 32 98 00
       0.050954983 0.12513651 -0.022870094 1.3976994e-38
0003b0 3c c7 11 00 9a e5 0f be 68 d1 c3 3d a5 cc 39 80
       1.632675e-39 -0.1405243 0.095614254 -5.308036e-39
0003c0 03 12 05 bd 19 12 f6 b6 ba 30 0e 3e 57 55 81 00
       -0.03248788 -7.333478e-06 0.13885775 1.1877393e-38
0003d0 34 5d 96 bd c5 81 0c 80 fb 64 1a 3e d7 6b 71 bc
       -0.07341996 -1.148578e-39 0.15077583 -0.014735184
0003e0 ba 81 65 3d 3a d6 94 bd c2 82 48 2f 10 f4 ea 3a
       0.05603192 -0.07267423 1.8236349e-10 0.001792552
0003f0 d4 c2 dc 3c d9 e5 56 bd 8a d4 2b 11 61 42 0f 80
       0.02694837 -0.052465294 1.3555015e-28 -1.401345e-39

fc3.0.bias f4 [10]
000000 c1 ab 24 bd 9e 18 1b 00 e7 06 a0 3b 42 a6 89 01
       -0.04020286 2.48839e-39 0.0048836353 5.056442e-38
000010 af 7b c1 bd 1a d2 b9 3b d0 47 b4 3b ad 6b f0 bd
       -0.09447419 0.005670798 0.005501725 -0.117392875
000020 5d 5f 8f bd 4e 38 f6 80
       -0.07000611 -2.261173e-38

fc4.0.weight f4 [2, 10]
000000 76 60 de bb 35 06 1e 00 8e 5f d0 3d 8d 69 6f 92
       -0.0067864014 2.757292e-39 0.101744756 -7.5545204e-28
000010 12 f3 59 be 13 bc 8e 3e 26 3e 90 be bc c8 fc 3d
       -0.2128413 0.27877864 -0.28172415 0.123429745
000020 30 67 48 be 0c d6 6a 80 97 fb 84 be ef 6c 1d 1a
       -0.19570613 -9.811348e-39 -0.25973198 3.2554835e-23
000030 ea 3b e6 bd bf 61 08 24 16 45 b6 3e 13 cb 68 bd
       -0.112418965 2.9573093e-17 0.35599583 -0.05683429
000040 a6 e7 ab be 5e f2 25 bc df cb 05 3e b5 36 8f 29
       -0.3357517 -0.010128586 0.13066052 6.359966e-14

fc4.0.bias f4 [2]
000000 4a 80 95 be 8d 17 0c 3e
       -0.2919944 0.13680859
