Faza III/predikcija_detekcija/model/Model_10god.pth (torch, 15791 bytes, 8 tensors)

fc1.0.weight f4 [40, 15]
-9.52095e-40 -2.1303644e-05 -3.465057e-39 6.76691e-40 2.9053394e-22 -8.2949e-40 -9.86629e-40 6.15812e-40
7.537e-41 -0.027145177 -0.0067528076 -0.0010690166 -2.7148022e-09 -0.0005868358 -0.0022366794 0.038933747
0.03975909 -0.048866358 -0.045797415 -0.17423007 0.055472042 0.015647633 0.18820688 0.087627165
-0.11259187 -0.060135256 -0.12272347 -0.21744253 -0.09652899 0.5070056 -9.45605e-40 -2.191291e-06
-8.47285e-40 1.010284e-39 -1.2640997e-09 -8.61363e-40 9.20073e-40 3.08717e-40 -4.10007e-40 -0.004973356
-0.0021160054 -5.3001833e-05 -2.900842e-11 -4.445737e-06 -0.00020494011 -8.298244e-34 0.011508244 -2.3807505e-23
1.6005012e-37 -0.00020158356 -1.03857e-39 -4.085375e-39 -7.5848e-41 -5.52018e-40 -0.053630743 -0.024595806
0.037357807 -0.019752491 -0.14848852 -0.019181058 -2.5886288e-07 -0.3149499 0.0086526135 4.989777e-07
-0.12984739 -1.3029791e-22 -1.2475014e-28 -1.4454132e-07 -7.542497e-11 0.012793219 -0.112410046 -0.16273125
0.08407325 0.21264249 0.05966851 -5.1936875e-12 -0.23754777 -2.9023135e-05 -3.746842e-12 -0.0509745
8.634526e-21 -8.11639e-39 -4.5036674e-12 -1.4423243e-20 0.008496988 -0.0141207725 -0.17272548 0.010836096
0.09382058 0.05188007 -1.129563e-39 -6.359323e-07 -6.75548e-40 9.16168e-40 2.2535474e-26 5.57535e-40
3.18989e-40 -2.41863e-40 1.047535e-39 -0.0026603327 -0.0015482048 -3.3034437e-05 -5.1936434e-16 1.0528538e-06
-0.00094684714 8.79525e-40 -3.9642921e-07 1.68457e-40 -7.44866e-40 -1.00202973e-25 -7.33263e-40 1.229176e-39
-6.31202e-40 -4.52907e-40 -0.00035511496 -0.0009561658 1.993499e-06 1.2529787e-14 3.3600193e-06 -0.000100190955
6.692569e-30 0.054827176 -2.9923774e-21 -1.9458606e-32 -0.008327123 1.86476e-40 -1.187781e-39 -2.0598427e-36
-1.188963e-39 -0.013639412 -0.04768053 0.049887404 -0.032021295 -0.024504295 -0.05633092 1.339482e-39
-5.7370144e-34 -3.6483e-41 1.0152e-40 2.27373e-40 -8.49376e-40 -4.60443e-40 -4.31879e-40 -6.7396e-40
-7.5134625e-13 -1.1010115e-22 -1.2711542e-28 -1.26818e-40 9.358941e-32 -5.220431e-34 -5.1243067e-05 -0.21863921
0.044669647 -9.358201e-06 -0.18998751 -1.00651655e-16 -8.416692e-21 -5.3731517e-05 1.1539287e-16 -0.041919027
-0.29301968 0.118532866 0.024596505 0.30030155 -0.03831764 -7.2283856e-13 -0.061038133 -3.8918665e-06
3.503172e-14 -0.0016741882 -7.18577e-40 6.9058e-40 -7.898017e-14 7.446028e-26 -0.22333364 0.022752589
0.008174534 -0.04673219 -0.003186524 0.010123607 -6.37865e-40 -2.8613092e-19 1.8091e-41 5.19806e-40
1.00245605e-17 4.5549e-41 3.73946e-40 1.177363e-39 -1.083633e-39 -0.0008761109 -7.861544e-06 -2.995315e-08
3.6276242e-29 1.0671293e-06 1.2219309e-06 1.169504e-39 -5.3789186e-09 1.187268e-39 8.91914e-40 -4.3587385e-35
7.46393e-40 -2.21942e-40 -1.161029e-39 -1.121521e-39 -0.0033190788 -0.00015498349 -2.4283914e-05 -2.794709e-18
-3.558346e-06 -1.20237255e-05 5.0038e-40 0.0009498228 8.550261e-28 -1.36477e-40 -5.2082044e-07 6.31393e-40
8.91032e-40 -6.74944e-40 4.93683e-40 -0.005718916 0.008244951 -0.011065839 -0.0003741112 -0.011588656
0.00056075223 -5.95737e-40 0.014521637 1.8143995e-22 4.593e-41 -4.906152e-06 6.49025e-40 -1.151942e-39
-9.28898e-40 -1.026996e-39 -0.05951616 0.08331297 -0.112403296 -0.007272315 -0.01897561 -0.060812138
2.43373e-40 0.0016435722 -3.0613119e-28 -2.88771e-40 -1.0049807e-06 7.78092e-40 -7.68699e-40 -1.056693e-39
9.06978e-40 -0.12660488 0.057268813 0.008791686 -0.00030273251 -0.060883902 -0.016904216 0.0009550451
00000000: 0e5e 0a80 3ab5 b2b7 2bbb 2580 575e 0700
00000010: f39d af1b 4808 0980 52be 0a80 a2b4 0600
00000020: 1ad2 0000 905f debc a846 ddbb 3f1e 8cba
00000030: 4e8f 3ab1 e2d5 19ba 4195 12bb fe78 1f3d
00000040: 6dda 223d 1728 48bd 1296 3bbd 5e69 32be
00000050: a736 633d 772f 803c 4eb9 403e df75 b33d
00000060: 9196 e6bd 6350 76bd 7156 fbbd 41a9 5ebe
00000070: feb0 c5bd 1ecb 013f f64b 0a80 180e 13b6
00000080: e339 0980 4300 0b00 8ebc adb0 2161 0980
00000090: ca04 0a00 945c 0300 ef76 0480 89f7 a2bb
000000a0: aeac 0abb 494e 5eb8 2829 ffad 972c 95b6
000000b0: 31e5 56b9 d4e0 8988 138d 3c3c 8740 e699
000000c0: 54d9 5902 2d60 53b9 1c4f 0b80 5d7c 2c80
000000d0: 6fd3 0080 cd02 0680 e9ab 5bbd 257d c9bc
000000e0: 8004 193d facf a1bc 600d 18be 9821 9dbc
000000f0: d8f9 8ab4 1d41 a1be b1c3 0d3c 7df1 0535
00000100: b7f6 04be 4085 1d9b bc23 1e91 3733 1bb4
00000110: 7cdc a5ae a69a 513c 3d37 e6bd 05a3 26be
00000120: 992e ac3d f4be 593e f866 743d 94bc b6ac
00000130: b93f 73be b576 f3b7 8dd4 83ac a3ca 50bd
00000140: 011a 231e 3161 5880 6e75 9eac 4339 889e
00000150: f336 0b3c d05a 67bc f3de 30be e189 313c
00000160: 0125 c03d 3280 543d c34c 0c80 efb4 2ab5
00000170: 275b 0780 e7f9 0900 372e df14 2e12 0600
00000180: 3679 0300 37a2 0280 1a68 0b00 fa58 2ebb
00000190: 22ed caba 758e 0ab8 53b2 15a6 c84f 8d35
000001a0: d635 78ba c293 0900 d1d4 d4b4 97d5 0100
000001b0: 621c 0880 2e17 f895 0afc 0780 7162 0d00
000001c0: 89df 0680 85ee 0480 b92e bab9 33a7 7aba
000001d0: 0dc8 0536 72b7 6128 b17c 6136 9c1d d2b8
000001e0: cebd 070f 7692 603d ff18 629d d911 ca8a
000001f0: 7c6e 08bc d207 0200 0def 0c80 673b 2f84
00000200: 58f2 0c80 d777 5fbc a94c 43bd bc56 4c3d
00000210: c328 03bd 3bbd c8bc 40bb 66bd ee95 0e00
00000220: 1fa5 3e88 b365 0080 ff1a 0100 d379 0200
00000230: b73f 0980 8703 0580 e7b3 0480 ba56 0780
00000240: 347c 53ab a81a 059b 5023 2191 8461 0180
00000250: d5f8 f20b 847a 2d88 d3ed 56b8 f5e2 5fbe
00000260: 85f7 363d 2b01 1db7 168c 42be 4016 e8a4
00000270: a0fc 1e9e c75d 61b8 f709 0525 49b3 2bbd
00000280: ad06 96be 5cc1 f23d 9c7e c93c 20c1 993e
00000290: f5f2 1cbd 0276 4bab 1f03 7abd e196 82b6
000002a0: d3c4 1d29 6f70 dbba 1ad3 0780 0e85 0700
000002b0: f8d8 b1a9 cf5a b815 93b1 64be a363 ba3c
000002c0: 7bee 053c 416a 3fbd 00d5 50bb 7cdd 253c
000002d0: 1cf2 0680 e2e6 a8a0 6e32 0000 02a9 0500
000002e0: a6eb 3823 f97e 0000 6912 0400 02d2 0c00
000002f0: bacc 0b80 cfaa 65ba 13e5 03b7 d6a5 00b3
00000300: 41f1 3710 493a 8f35 3a01 a435 1abc 0c00
00000310: 78d1 b8b1 9fed 0c00 4bb6 0900 13c0 6786
00000320: a420 0800 af6a 0280 7aa4 0c80 5836 0c80
00000330: e784 59bb 1083 22b9 4fb5 cbb7 8f36 4ea2
00000340: ebcb 6eb6 82b9 49b7 db72 0500 87fd 783a
00000350: fb7b 8712 717c 0180 82ce 0bb5 11e0 0600
00000360: d6b3 0900 7859 0780 3060 0500 bf65 bbbb
00000370: d515 073c 7e4d 35bc 5b24 c4b9 59de 3dbc
00000380: 72ff 123a ac7c 0680 29ec 6d3c f258 5b1b
00000390: 0980 0000 869f a4b6 3811 0700 258b 0c80
000003a0: 641d 0a80 d92e 0b80 38c7 73bd fe9f aa3d
000003b0: b333 e6bd 9a4c eebb bd72 9bbc 2616 79bd
000003c0: 6da6 0200 226d d73a a008 c291 fa24 0380
000003d0: e0e2 86b5 0179 0800 d25e 0880 a181 0b80
000003e0: 49e0 0900 b6a4 01be b492 6a3d 010b 103c
000003f0: 12b8 9eb9 6661 79bd b67a 8abc fe5b 7a3a

fc1.0.bias f4 [40]
7.69927e-40 -0.015183231 6.07586e-40 1.1286229e-29 -4.7867787e-05 -1.5541282e-07 -9.65423e-40 -1.11594e-40
3.4351615e-24 1.163083e-39 0.00031727809 6.8967765e-09 1.03996e-39 6.62982e-40 1.2877445e-38 -4.4531495e-30
7.602935e-39 6.290976e-05 -2.9901417e-32 1.0506929e-16 -3.584012e-15 0.0006983284 3.39563e-40 -2.673829e-24
-4.828406e-33 7.495279e-28 -1.5234481e-09 6.298886e-26 -0.00015724263 1.2853322e-25 -1.84858e-40 2.997787e-39
8.169895e-39 0.10042977 0.00661037 6.763975e-17 0.0017638202 -8.9614e-41 0.00044303344 8.433469e-09
00000000: 3e62 0800 16c3 78bc b49d 0600 74e9 640f
00000010: a5c5 48b8 8ddf 26b4 3583 0a80 1437 0180
00000020: 31e4 8418 34aa 0c00 5858 a639 b0f8 ec31
00000030: fc52 0b00 2038 0700 1439 8c00 26a4 b48e
00000040: e4c9 5200 6cee 8338 cd41 1b8b f645 f224
00000050: ad20 81a7 0710 373a 90b2 0300 a4e0 4e98
00000060: 6b90 c889 ed88 6d12 9161 d1b0 eff3 9b15
00000070: 7fe1 24b9 ce1d 1f16 4f03 0280 9ca4 2000
00000080: 58f6 5800 20ae cd3d cd9b d83b 76f7 9b24
00000090: fc2f e73a cff9 0080 f146 e839 cae2 1032

fc2.0.weight f4 [50, 40]
1.0026975e-21 -0.009870682 1.185005e-39 -0.007894785 0.054530624 -0.043985054 -8.94348e-40 7.47027e-40
0.064788915 -3.35966e-40 0.049461562 -0.03159195 2.5476395e-35 1.58795e-40 6.36083e-40 -7.227125e-05
0.059101995 0.11152964 -0.0012689148 -0.058002766 -1.193242e-39 0.04329207 6.2720037e-21 -0.017567275
0.056052983 0.0001918482 -0.0017062351 -0.0012215923 -0.118468165 -0.0271948 -5.26779e-40 -3.32814e-40
5.345294e-39 0.044250168 -0.062126577 1.1635147e-28 0.038950097 -9.09523e-40 -0.13861388 -0.07949339
-4.28852e-40 -0.0102859065 1.285066e-39 -3.8260586e-24 -0.027478961 0.06112207 -6.9427824e-28 -9.638169e-21
-0.056357592 -7.1905e-40 -0.09087781 -0.007276173 -5.34988e-40 2.07762e-40 -1.361298e-39 -8.35741e-40
-0.00011601993 0.037126705 0.033059493 -0.0010446712 -4.2303244e-12 -0.030742375 -1.488645e-10 3.7314398e-06
-0.07397696 6.4497025e-22 -7.5202466e-10 0.04916412 -0.048958097 0.0017100247 -6.23717e-40 1.2609642e-38
6.77755e-40 0.0019411317 -0.051756117 -8.829642e-11 -0.017251259 -4.1743e-41 -0.09134301 0.0346133
8.920703e-33 -0.022867335 4.3790053e-25 -0.009965368 -0.06406276 0.07905241 -6.7395385e-25 -4.7179746e-16
-0.09434121 -2.9395e-41 -0.0015714224 0.013738091 1.0651067e-33 1.3886544e-37 -0.00013195493 -0.00029407532
0.045376543 -0.07637152 0.017852673 -0.008025651 7.8913496e-24 0.026118493 -2.8939173e-06 -0.009162903
0.05285124 8.05634e-06 -1.37497596e-08 0.025445279 0.010581627 -0.048545826 1.129828e-39 -5.2567733e-33
-8.784523e-39 0.0014082172 -0.010070032 -2.0481504e-15 -0.06469783 -1.065547e-07 0.01921489 -0.067292504
0.012657089 -0.11306266 -7.555209e-07 -0.022819528 0.008565467 0.06119076 -8.051215e-06 0.000101890364
0.11227343 -6.0561803e-22 0.18426724 -0.000634141 1.2968275e-34 6.7906885e-06 0.00097028597 0.0009669509
-0.039213322 -0.08413402 0.075468644 -0.091922455 1.1611353e-11 0.00820239 -0.0067933896 0.0065342477
0.025317393 -5.9458227e-05 -0.0511312 0.01881007 0.07922865 -0.0511969 1.64821e-40 -1.024426e-05
8.7656867e-16 0.19084449 0.1356123 -1.315757e-11 0.059191454 -0.0013927345 -0.050823953 0.092054814
1.03292e-39 -0.065829046 -1.66855e-40 1.58103e-40 3.1563684e-17 -6.1186415e-16 1.00529e-40 9.7148e-41
-8.48795e-40 -7.46163e-40 -3.8383754e-05 -2.414108e-09 -1.290161e-39 7.05684e-40 -1.084286e-39 -4.98465e-39
1.393549e-39 -0.010208718 1.183078e-39 1.275449e-39 -0.009214542 0.04716963 3.9697e-40 -6.3531e-40
-1.288783e-39 2.0471e-40 -2.45921e-40 7.75495e-40 0.006440325 6.60736e-40 9.54434e-40 -9.14978e-40
1.0123983e-38 0.30980808 -0.012169171 -0.009299236 4.86474e-22 6.30684e-40 -9.051372e-05 4.1716257e-09
7.74726e-40 0.21586971 -4.9032e-40 1.01462e-39 -1.6352392e-16 1.8797448e-10 -1.2858336e-38 1.4051144e-32
-5.51e-43 2.35757e-40 -0.0006158388 -2.4598789e-14 -7.500784e-39 8.20938e-40 1.12343e-40 -1.091865e-39
1.878415e-39 -0.00021447292 1.09026e-39 1.8102025e-32 -7.84853e-40 -0.03807354 6.56e-42 -4.31251e-40
2.57099e-40 2.45426e-40 -1.163867e-39 -5.411e-40 -0.0011508348 2.13237e-40 9.38154e-40 -1.02159e-39
6.0252e-40 -0.066549666 -8.196912e-05 -1.31299e-40 -0.003050288 2.80046e-39 -0.0027085498 1.782104e-24
-3.525325e-39 -0.02035307 5.4782e-40 -2.2186162e-08 -0.025730819 0.011105015 -1.036696e-39 3.5383e-39
-0.012540043 8.22799e-40 -0.052391265 5.635313e-07 1.212185e-39 6.14205e-40 1.26687e-39 7.2466576e-32
00000000: fb85 971c a4b8 21bc 50e7 0c00 2159 01bc
00000010: 815b 5f3d ac29 34bd 14bd 0980 6822 0800
00000020: 0db0 843d 89a8 0380 3598 4a3d 9066 01bd
00000030: ac74 0706 a8ba 0100 24ed 0600 5590 97b8
00000040: ef14 723d a769 e43d b751 a6ba 4f94 6dbd
00000050: 46fe 0c80 0753 313d 19f3 ec1d 3fe9 8fbc
00000060: d097 653d dc2a 4939 c0a3 dfba d61d a0ba
00000070: 709f f2bd a1c7 debc 72bc 0580 c09f 0380
00000080: 8134 3a00 aa3f 353d 7078 7ebd 367e 1311
00000090: 238a 1f3d 61e7 0980 ccf0 0dbe 6ecd a2bd
000000a0: 77ab 0480 3886 28bc 3efe 0d00 7303 9498
000000b0: 8f1b e1bc 235b 7a3d 8b06 5c92 530f 369e
000000c0: 38d7 66bd 6bd4 0780 251e babd f76c eebb
000000d0: 54d3 0580 2843 0200 bfd2 0e80 b519 0980
000000e0: ba4f f3b8 2c12 183d 6469 073d 59ed 88ba
000000f0: 60d7 94ac 6fd7 fbbc a2ad 23af a669 7a36
00000100: 3b81 97bd 28ee 421c 08b7 4eb0 5160 493d
00000110: 4988 48bd e822 e03a abca 0680 8d4e 8900
00000120: 4e61 0700 926d fe3a 39fe 53bd 772a c2ae
00000130: 8352 8dbc 5d74 0080 0b12 bbbd adc6 0d3d
00000140: 9846 390a 4754 bbbc 0e86 0717 c845 23bc
00000150: 5633 83bd 3be6 a13d 2094 5097 82fc 07a6
00000160: f735 c1bd f151 0080 30f8 cdba bb15 613c
00000170: a1f8 b008 8b03 3d02 625d 0ab9 1f2e 9ab9
00000180: c1dc 393d ac68 9cbd c53f 923c 057e 03bc
00000190: 12a4 1819 73f6 d53c 1f35 42b6 0020 16bc
000001a0: 8b7a 583d b829 0737 1538 6cb2 9e72 d03c
000001b0: 8f5e 2d3c fdd7 46bd 804d 0c00 9a5b da89
000001c0: ada7 5f80 ee93 b83a c7fc 24bc b595 13a7
000001d0: 4c80 84bd 11d3 e4b3 8c68 9d3c a7d0 89bd
000001e0: ae5f 4f3c 658d e7bd 00cf 4ab5 05f0 babc
000001f0: 2c56 0c3c 2aa3 7a3d b513 07b7 f9ad d538
00000200: 9def e53d 6d09 379c 8db0 3c3e 7b3c 26ba
00000210: c160 2c07 92db e336 ca5a 7e3a fa7a 7d3a
00000220: 269e 20bd 754e acbd 4e8f 9a3d d741 bcbd
00000230: e344 4c2d 5163 063c 159b debb 3e1d d63b
00000240: 6c66 cf3c c962 79b8 f36e 51bd 9317 9a3c
00000250: a142 a23d d7b3 51bd 74cb 0100 c3de 2bb7
00000260: 5aa7 7c26 bd6c 433e f3dd 0a3e 6d78 67ad
00000270: bd72 723d 6a8c b6ba c72c 50bd 3c87 bc3d
00000280: 5c3f 0b00 61d1 86bd 20d1 0180 bab8 0100
00000290: d28f 1124 9b5b 30a6 3c18 0100 cf0e 0100
000002a0: 183e 0980 0020 0880 3efe 20b8 70e5 25b1
000002b0: 720c 0e80 29af 0700 8cce 0b80 2d47 3680
000002c0: a62c 0f00 7742 27bc f1e1 0c00 6fe3 0d00
000002d0: 97f8 16bc f134 413d 9752 0400 fcea 0680
000002e0: 9a08 0e80 a63a 0200 87ad 0280 c471 0800
000002f0: 5d09 d33b dd31 0700 9364 0a00 96f6 0980
00000300: 8c3d 6e00 2a9f 9e3e 3461 47bc d35b 18bc
00000310: 1a07 131c 17de 0600 2fd2 bdb8 0256 8f31
00000320: 9f6f 0800 f30c 5d3e d056 0580 590c 0b00
00000330: be87 3ca5 1dae 4e2f cf03 8c80 59ea 910a
00000340: 8901 0080 3291 0200 3e70 21ba f290 dda8
00000350: 22ad 5180 71f0 0800 2b39 0100 ade3 0b80
00000360: 4274 1400 23e4 60b9 34df 0b00 70fb bb0a
00000370: da8b 0880 00f3 1bbd 4912 0000 27b2 0480
00000380: b0cc 0200 26ac 0200 63ac 0c80 5ee4 0580
00000390: 9cd7 96ba 6b52 0200 3137 0a00 c71f 0b80
000003a0: 958f 0600 314b 88bd d6e6 abb8 026e 0180
000003b0: 57e7 47bb 8b7e 1e00 ed81 31bb 35e2 0918
000003c0: 2c63 2680 7bbb a6bc 19f7 0500 e393 beb2
000003d0: 70c9 d2bc cff1 353c e349 0b80 5787 2600
000003e0: c174 4dbc a1f5 0800 3998 56bd 9345 1735
000003f0: 1433 0d00 27b0 0600 85cb 0d00 4d22 bc0b

fc2.0.bias f4 [50]
0.098363 -0.029881332 -0.03975176 0.011168602 4.052792e-07 0.3309356 -0.0008948779 -0.0025760687
-1.6769816e-05 -0.00032696064 -0.00010211408 -1.7698399e-06 -0.0066606747 0.25455 -0.0005848955 -0.0016835722
-0.009550709 -0.004941485 -1.1856428e-06 -2.6743466e-05 -7.125533e-07 -0.03173448 -1.6043632e-10 -9.9857934e-05
-5.311532e-05 0.21212554 -5.9497335e-10 -0.009922269 -3.1428438e-06 -0.01888965 -5.4786982e-05 1.5406692e-06
-3.6321446e-10 -0.0017049332 -0.0017730008 -0.002252267 0.27780262 -7.711424e-05 -0.0006450539 -0.00015817725
-2.0404782e-06 -7.2571784e-06 -0.0004630902 -1.1886942e-06 3.7207974e-07 -0.0013880052 -0.00029012782 -0.0012026969
-0.007528188 1.4044313e-06
00000000: 8a72 c93d b2c9 f4bc bed2 22bd 83fc 363c
00000010: 2695 d934 6470 a93e 3d96 6aba 43d3 28bb
00000020: e8ac 8cb7 ea6b abb9 1426 d6b8 3c8b edb5
00000030: ca41 dabb 6154 823e ac53 19ba 4fab dcba
00000040: 947a 1cbc 2eec a1bb 6022 9fb5 2857 e0b7
00000050: 4a46 3fb5 04fc 01bd cf66 30af d26a d1b8
00000060: 24c8 5eb8 7037 593e 878b 23b0 0391 22bc
00000070: a5e9 52b6 78be 9abc 13cb 65b8 fec8 ce35
00000080: e4ad c7af 1178 dfba 0964 e8ba c59a 13bb
00000090: 253c 8e3e 64b8 a1b8 d618 29ba 62dc 25b9
000000a0: 26ef 08b6 b082 f3b6 eaca f2b9 398b 9fb5
000000b0: 40c2 c734 baed b5ba 4c1c 98b9 d0a3 9dba
000000c0: 05af f6bb e47f bc35

fc3.0.weight f4 [10, 50]
0.043377932 0.11313952 0.045272447 0.018549273 -0.053508013 0.06781522 -0.19605768 0.049553994
-2.3864806e-05 0.09479298 -0.12366214 -0.061392777 -0.04414214 -0.0091356365 0.0011521541 -0.043172155
0.14165664 -0.015150372 -0.04696034 -0.14571846 -0.1165268 0.03660848 -0.0030248994 -0.04873145
0.032308187 -0.056608733 0.0014686956 -0.072029464 0.082482494 -0.07276874 -0.011798538 -0.03883225
-0.004257263 -0.072991505 0.0059581613 -0.001657494 -0.10019987 -3.83465e-05 0.09053845 -0.15015405
-0.12259029 1.8020894e-17 0.03464061 -0.0415421 -0.0051893285 -0.009383423 0.024881553 5.6690536e-05
-0.021145472 -0.06939858 0.074180804 -0.008150291 -0.09841728 -0.017278891 0.012925857 0.247785
-0.034506552 0.035048075 -0.0014190056 0.0037184018 -0.00035888748 4.039864e-39 0.15680818 0.21503511
0.04205906 0.0027514189 -0.021103775 0.05951705 -0.03759843 0.014325907 -0.056849916 0.032714497
-6.1254053e-21 -0.012194231 -0.040247012 0.20611945 2.8451575e-35 0.058026385 -0.022142166 0.121256225
-0.14699289 -0.034857776 -7.874466e-39 -0.012124208 0.07698345 0.00847045 0.15009163 -9.412734e-06
-0.016382635 1.1711138e-38 -0.000118230484 -0.046031553 -0.12579578 0.0061945315 -0.0076961056 -0.044396475
-0.07120578 -0.013600247 0.31415188 -0.024662768 0.014074909 -0.039931502 -0.057782043 0.15650529
0.28811252 -0.1824719 -0.09351821 -0.050134808 0.0031445916 0.043392763 -0.08358758 -0.0536449
-0.08545335 -0.042730995 0.0042877155 0.060866483 -0.018067554 -0.025131965 0.029842187 -0.16329949
0.27780685 -0.015357564 0.00023966332 0.062095545 0.029241793 0.0403053 0.016089836 -0.10898069
-0.024064144 -0.0859624 0.059922837 0.24054602 -0.0015133854 0.103764705 -0.12605752 -0.020682016
-0.22406894 -0.0012602726 -0.091419056 -0.14449285 -0.16166283 -0.040146336 0.056960065 0.00446596
0.24143101 -0.030169223 0.027714966 0.035682395 -0.11328412 0.1517978 0.057877436 0.024509659
0.05184126 -0.07652519 2.1536837e-12 1.693028e-12 -0.061863575 0.020743748 -0.0023708967 0.033678543
0.045336626 -8.107855e-15 -0.06962599 0.08434729 0.020467436 0.053378675 -0.022997841 -0.016916191
0.012046913 0.08374994 5.8039095e-08 -0.024950184 -5.0668465e-09 -0.14051615 -0.11360548 -0.047427207
0.00040623805 -0.0014511358 0.023225652 0.06492521 0.07707986 -1.930843e-26 4.3294814e-15 -0.08551164
0.02172415 -0.0050845123 0.008302757 3.778353e-12 0.009824612 0.03181972 0.005285238 0.0538061
0.055469595 0.039249625 -0.00010123141 0.02588471 0.062983796 -0.014088265 -0.07267892 -0.0032696303
-0.10381241 -0.005217265 0.081761114 -0.1217566 -2.5297313e-11 8.6781e-41 -0.12711027 0.0073065283
4.6026286e-12 -0.0037533725 0.024208635 -9.96916e-34 -9.27422e-05 -8.80583e-39 0.020716986 -0.069369644
-0.071238704 -0.033186715 0.0246793 -0.1093867 4.117358e-25 0.05908468 9.0025e-40 -0.039950788
-0.0043080226 -0.0067418995 -1.74505e-40 -0.005075376 -0.056638654 -0.0004549339 0.013579986 -9.5689e-41
8.756598e-19 -0.025877886 0.048888095 0.011310422 -0.06698853 1.0490774e-11 -0.0053518433 -0.097556844
-0.057590067 0.0033729067 0.009031428 -5.5087075e-05 9.636425e-39 0.011414597 0.029479142 -0.00010093245
8.1848227e-16 -0.009627317 0.022970928 -0.020535717 -0.038928833 -0.063751765 -0.0027868967 0.016164564
00000000: 0fad 313d b1b5 e73d 9a6f 393d a5f4 973c
00000010: 382b 5bbd b5e2 8a3d 58c3 48be 21f9 4a3d
00000020: 4831 c8b7 d222 c23d 9342 fdbd fe76 7bbd
00000030: 63ce 34bd a3ad 15bc e003 973a 49d5 30bd
00000040: 700e 113e 4439 78bc 7c59 40bd 3837 15be
00000050: 9aa5 eebd c6f2 153d 643d 46bb a19a 47bd
00000060: 9755 043d 8fde 67bd 3f81 c03a 2f84 93bd
00000070: 95ec a83d c707 95bd a84e 41bc 910e 1fbd
00000080: 8380 8bbb 927c 95bd ae3c c33b 4540 d9ba
00000090: 9735 cdbd 3ed6 20b8 396c b93d fcc1 19be
000000a0: 9e10 fbbd a236 a623 50e3 0d3d 0d28 2abd
000000b0: 3e0b aabb eebc 19bc 66d4 cb3c 00c7 6d38
000000c0: 4539 adbc d820 8ebd 1bec 973d cc88 05bc
000000d0: 008f c9bd 768c 8dbc f9c6 533c 5abb 7d3e
000000e0: be56 0dbd 928e 0f3d edfd b9ba 6eb0 733b
000000f0: 1029 bcb9 7ffd 2b00 5392 203e 2a32 5c3e
00000100: 1f46 2c3d 2651 343b d3e1 acbc 26c8 733d
00000110: d000 1abd 36b7 6a3c 75db 68bd a3ff 053d
00000120: 4969 e79d 50ca 47bc 0dda 24bd fa10 533e
00000130: 4746 1706 13ad 6d3d 7d63 b5bc 2f55 f83d
00000140: 4e85 16be 07c7 0ebd cfbe 5580 9da4 46bc
00000150: 80a9 9d3d a4c7 0a3c 9fb1 193e 62eb 1db7
00000160: e034 86bc e385 7f00 82f2 f7b8 958b 3cbd
00000170: 9cd0 00be 7ffb ca3b 9d2f fcbb 14d9 35bd
00000180: 56d4 91bd 92d3 5ebc 84d8 a03e 9309 cabc
00000190: 729a 663c 378f 23bd ddac 6cbd ec42 203e
000001a0: 7c83 933e ead9 3abe 7a86 bfbd 285a 4dbd
000001b0: 7e15 4e3b 9cbc 313d f72f abbd c1ba 5bbd
000001c0: 2a02 afbd b206 2fbd f77f 8c3b 224f 793d
000001d0: 6802 94bc 8de1 cdbc 9a77 f43c fb37 27be
000001e0: b33c 8e3e 4b9e 7bbc 224e 7b39 e657 7e3d
000001f0: 7c8c ef3c 2c17 253d d5ce 833c 4531 dfbd
00000200: 2b22 c5bc 0e0d b0bd a671 753d b251 763e
00000210: ca5c c6ba 9782 d43d 3915 01be 556d a9bc
00000220: 5472 65be bb2f a5ba ea39 bbbd eff5 13be
00000230: f18a 25be 7c70 24bd f54e 693d 3057 923b
00000240: b139 773e 7225 f7bc 7f0a e33c b427 123d
00000250: 8101 e8bd e270 1b3e e410 6d3d 7bc8 c83c
00000260: 8057 543d 3db9 9cbd 518d 172c c345 ee2b
00000270: a964 7dbd cbee a93c 0c61 1bbb 83f2 093d
00000280: e6b2 393d e20e 12a8 1298 8ebd 46be ac3d
00000290: 53ab a73c 99a3 5a3d f865 bcbc d393 8abc
000002a0: 6a60 453c 1785 ab3d a946 7933 5464 ccbc
000002b0: 7418 aeb1 77e3 0fbe fda9 e8bd 0843 42bd
000002c0: 59fc d439 0a34 beba b943 be3c 82f7 843d
000002d0: 0cdc 9d3d b038 bf94 6bfc 9b27 ba20 afbd
000002e0: d8f6 b13c fb9b a6bb 4908 083c 61f0 842c
000002f0: 69f7 203c 6555 023d ca2f ad3b c963 5c3d
00000300: 1634 633d 37c4 203d 334c d4b8 2c0c d43c
00000310: a6fd 803d 77d2 66bc b0d8 94bd 4b47 56bb
00000320: 9a9b d4bd 97f5 aabb 5f72 a73d 865b f9bd
00000330: 7c84 dead e9f1 0000 3229 02be 9a6b ef3b
00000340: cbf0 a12c 24fb 75bb 3051 c63c 1ea4 a588
00000350: 977e c2b8 12e3 5f80 abb6 a93c ac11 8ebd
00000360: 99e5 91bd cbee 07bd 3e2c ca3c 2206 e0bd
00000370: 24da fe16 c702 723d 88cd 0900 70a3 23bd
00000380: 502a 8dbb 27eb dcbb 73e6 0180 574f a6bb
00000390: effd 67bd 3284 eeb9 977e 5e3c be0a 0180
000003a0: 7e39 8121 dcfd d3bc e23e 483d 594f 393c
000003b0: 4831 89bd 3f8e 382d 845e afbb e2cb c7bd
000003c0: 90e3 6bbd fc0b 5d3b 8ef8 133c 4c0d 67b8
000003d0: 6fee 6800 4a04 3b3c 3e7e f13c b2ab d3b8
000003e0: 55e9 6b26 e5bb 1dbc 872d bc3c 853a a8bc
000003f0: d773 1fbd 4990 82bd 5ea4 36bb 8c6b 843c

fc3.0.bias f4 [10]
0.42620444 0.22459435 0.48266244 -0.07163593 0.00066104106 0.028415635 0.271383 -0.0015643056
-0.0050293976 -0.0016509029
00000000: 7837 da3e 10fc 653e 881f f73e dcb5 92bd
00000010: b749 2d3a e8c7 e83c b6f2 8a3e 6309 cdba
00000020: a5cd a4bb 1c63 d8ba

fc4.0.weight f4 [2, 10]
-0.13503328 -0.19926755 0.032600332 0.18908732 -0.28067303 -0.1881768 -0.17168525 -0.044060044
-0.0718346 -0.03607823 -0.087574825 -0.058750037 -0.13273665 0.14897574 -0.13016935 -0.1832954
-0.019810893 -0.082060695 -0.029511169 -0.03122699
00000000: 2a46 0abe cb0c 4cbe ed87 053d 1ba0 413e
00000010: 60b4 8fbe 6bb1 40be 42ce 2fbe 4e78 34bd
00000020: 051e 93bd c4c6 13bd 6e5a b3bd e1a3 70bd
00000030: 1eec 07be 198d 183e 1d4b 05be cab1 3bbe
00000040: 744a a2bc 700f a8bd 68c1 f1bc bfcf ffbc

fc4.0.bias f4 [2]
0.6939693 -0.8404161
00000000: f9a7 313f 8225 57bf
