Faza III/prediction&detection/model/Model_now.pth (torch, 17263 bytes, 8 tensors)

fc1.0.weight f4 [60, 11]
-0.21951541 -0.13050918 -0.118742816 0.169914 -0.03494821 -0.4203441 -0.08566154 -0.0068601747
-0.36937258 -0.48820317 -0.20026034 0.24489723 0.12079056 0.0862415 -0.15567836 0.18670276
0.016377121 0.06745878 -0.22969915 0.44427928 0.20899624 0.20675461 0.2219742 -0.41404125
-0.23803766 -0.07332967 0.09055419 -0.008035087 -0.09171227 -0.10053447 -0.63031113 -0.11277
-0.3849261 -0.06546647 0.5412495 0.09587362 0.215945 -0.09376433 -0.024475683 0.14962049
0.2551345 0.60595185 0.17911296 0.48466638 -0.25286478 0.12550725 0.3163362 -0.093041606
0.2593498 -0.098289706 0.27335492 -0.09013406 0.24955557 0.6414702 0.32943037 -0.17197032
-0.0015554104 -0.1296345 -0.104562335 0.20868734 -0.2574841 -0.055406637 0.224454 -0.36787853
-0.6849857 -0.026401645 -0.09214635 0.007104133 -0.3569948 0.12080579 0.21481396 -0.14169058
-0.05153211 0.07708881 -0.24348302 -0.08270808 -0.025763644 -8.217127e-13 -3.268401e-16 5.64606e-38
-4.362717e-13 6.34428e-40 1.42814e-39 3.773397e-39 -2.2910567e-38 5.1012394e-21 1.8839088e-12 1.2131083e-29
-0.18001413 -0.20676282 -0.27842233 0.104302995 -0.16844028 -0.3383212 0.034601584 0.16848102
-0.15873328 -0.19625282 -0.22380884 -5.715675e-16 -3.4637497e-13 9.434772e-21 6.97194e-40 -3.0718056e-20
-1.5215277e-14 -3.3777848e-28 -8.943073e-16 -2.97377e-39 5.62371e-38 5.2480516e-38 -2.7909034e-27 -1.8082813e-12
-2.2618738e-38 -3.8021523e-14 5.2607945e-38 2.641035e-20 9.72923e-39 -4.2295442e-13 -4.1240685e-38 9.845836e-19
-3.444744e-29 2.5850397e-38 1.5330856e-34 5.7864685e-17 6.966178e-39 -4.848013e-30 1.577627e-39 2.354637e-39
-2.5945734e-12 1.441263e-39 2.9084053e-18 -5.223539e-38 -1.3736334e-12 3.44904e-40 -6.1572073e-24 -2.264872e-38
-3.249917e-39 5.4596987e-38 1.1998542e-38 6.92749e-40 2.7463292e-38 -2.746483e-38 3.013174e-39 0.07613575
0.19951226 0.0054272073 0.2696534 0.050374627 -0.08971489 -0.18644562 -0.028382625 0.19757092
0.005966693 0.13569447 0.0026895944 5.527486e-39 -1.3555544e-36 -0.0047165826 -0.0013239126 2.3349757e-12
4.4447525e-15 -0.0048052804 6.199899e-13 -1.1177422e-38 -5.481921e-38 -1.7728874e-12 1.5209611e-38 4.0342248e-12
-1.9346346e-11 -2.1089524e-27 2.6627245e-14 -1.58424e-40 -2.0453958e-10 3.8486318e-23 1.579477e-25 6.38096e-39
-0.23472343 -0.2398218 -0.4628464 0.019079842 0.06532397 -0.15134 0.020954227 0.06909544
-0.58755475 -0.5891954 -0.22352867 0.26353708 0.3367654 0.0065570795 -0.029245446 0.046295
-0.0693655 0.2354886 0.21438521 0.38294625 0.15875715 0.37641186 -0.1761924 0.1912414
0.1833052 0.24727638 -0.10433038 0.2364871 0.40937588 0.24511418 0.5720096 0.6384561
0.30603606 -0.19142798 0.062371753 -0.11292558 0.09683583 -0.29692435 0.074069 -0.017427018
0.1757796 0.009873038 -0.021455875 0.1039558 -0.23909011 -0.023488533 -0.0707731 0.27640623
-0.143067 0.13299552 0.03902225 -0.060463525 0.04021383 0.004496653 0.15876955 -0.16841784
0.06218678 0.31587255 -0.02298843 -0.09723671 0.44691435 0.0552315 0.12365627 0.20411198
0.1649937 0.11112817 0.00061942206 0.011147385 0.08019329 0.0070202523 -0.039630823 0.24399252
-0.026965909 0.0056626075 0.04791759 0.07996175 0.1786401 0.019237053 0.31270668 0.0012621299
00000000: a6c8 60be 33a4 05be 6f2f f3bd f0fd 2d3e
00000010: db25 0fbd 5837 d7be 516f afbd 51cb e0bb
00000020: 671e bdbe c4f5 f9be 0c11 4dbe 57c6 7a3e
00000030: 0b61 f73d 629f b03d 266a 1fbe 022f 3f3e
00000040: 5029 863c d427 8a3d 4136 6bbe 9378 e33e
00000050: 1c03 563e 7bb7 533e 344d 633e 37fd d3be
00000060: 25c0 73be de2d 96bd 7a74 b93d 99a5 03bc
00000070: a5d3 bbbd 04e5 cdbd 125c 21bf f5f3 e6bd
00000080: 0915 c5be 4913 86bd 548f 0a3f 6359 c43d
00000090: b020 5d3e 8307 c0bd 3a81 c8bc 1d36 193e
000000a0: fda0 823e a91f 1b3f 6369 373e 3126 f83e
000000b0: 7e77 81be f984 003e d2f6 a13e 998c bebd
000000c0: 7fc9 843e 1d4c c9bd 2df5 8b3e 3598 b8bd
000000d0: 7f8b 7f3e 6437 243f 19ab a83e fd18 30be
000000e0: eade cbba e8be 04be c724 d6bd 22b2 553e
000000f0: f5d4 83be 12f2 62bd 45d7 653e 935a bcbe
00000100: 395b 2fbf 4348 d8bc 3ab7 bcbd c9c9 e83b
00000110: 06c8 b6be 0769 f73d 31f8 5b3e 5617 11be
00000120: 5513 53bd bde0 9d3d 9d53 79be db62 a9bd
00000130: 470e d3bc a44a 67ab 1669 bca5 4cb3 9901
00000140: 6199 f5aa 87e8 0600 138d 0f00 b216 2900
00000150: 5779 f980 29b8 c01d 7c91 042c 2f0c 760f
00000160: a055 38be a2b9 53be 5f8d 8ebe cf9c d53d
00000170: 9c7b 2cbe 7038 adbe 64ba 0d3d 4a86 2c3e
00000180: fa8a 22be 80f6 48be 252e 65be 3dbe 24a6
00000190: e5fd c2aa c237 321e 7e97 0700 da0f 119f
000001a0: 0a0c 89a8 b117 d691 1ee2 80a6 a961 2080
000001b0: 8a17 9901 95dd 8e01 3f1e 5d93 337e feab
000001c0: d74b f680 d53b 2ba9 6336 8f01 4f70 f91e
000001d0: 23f1 6900 281a eeaa 2089 6081 844c 9121
000001e0: 55ab 2e90 32be 0c01 33c8 4b07 486d 8524
000001f0: dfda 4b00 a5a8 c48e c82d 1100 c5a3 1900
00000200: ae93 36ac a8b1 0f00 399a 5622 c132 8e81
00000210: 5c52 c1ab 74c1 0300 0732 ee98 6b9f f680
00000220: 7263 2380 8ca0 9401 0ea7 8200 1a8b 0700
00000230: 3e86 1501 6388 1581 81cf 2000 0fed 9b3d
00000240: f14c 4c3e b7d6 b13b 0310 8a3e a055 4e3d
00000250: 71bc b7bd 9aeb 3ebe ae82 e8bc 0850 4a3e
00000260: 4084 c33b 7ef3 0a3e e843 303b 6230 3c00
00000270: b9a2 e683 908d 9abb 2387 adba 2f4f 242c
00000280: 9b23 a027 9d75 9dbb fb82 2e2b 1bb6 7980
00000290: 6a3b 9581 0083 f9ab 359e a500 11f1 8d2c
000002a0: 192c aaad a316 2793 3fd6 ef28 9fb9 0180
000002b0: c6e4 60af c11b 3a1a a087 4316 857b 4500
000002c0: 575b 70be d993 75be 34fa ecbe 544d 9c3c
000002d0: 93c8 853d dff8 1abe 33a8 ab3c e981 8d3d
000002e0: fd69 16bf 82d5 16bf b3e4 64be 55ee 863e
000002f0: 846c ac3e c5dc d63b 2594 efbc d39f 3d3d
00000300: 800f 8ebd ec23 713e cc87 5b3e 8811 c43e
00000310: 3c91 223e 0eb9 c03e c86b 34be c9d4 433e
00000320: 5cb4 3b3e 0536 7d3e 2bab d5bd ad29 723e
00000330: b799 d13e 36ff 7a3e 396f 123f dc71 233f
00000340: c2b0 9c3e b205 44be 8679 7f3d 8745 e7bd
00000350: dd51 c63d 7806 98be 7db1 973d 1bc3 8ebc
00000360: 91ff 333e 86c2 213c 3bc4 afbc c7e6 d43d
00000370: 0ad4 74be 066b c0bc 7df1 90bd 1e85 8d3e
00000380: 2880 12be fa2f 083e cbd5 1f3d 9aa8 77bd
00000390: 42b7 243d a958 933b 7c94 223e ba75 2cbe
000003a0: 91b7 7e3d 0cba a13e 3b52 bcbc 0a24 c7bd
000003b0: f5d1 e43e 6d3a 623d 803f fd3d bb02 513e
000003c0: 1cf4 283e 2a97 e33d b660 223a 86a3 363c
000003d0: 613c a43d 250a e63b ee53 22bd 2dd9 793e
000003e0: 9ce7 dcbc 658d b93b 3c45 443d fcc2 a33d
000003f0: 6eed 363e 0697 9d3c 171b a03e 0d6e a53a

fc1.0.bias f4 [60]
0.14844868 -0.21850841 0.12422081 0.030601295 -0.2200077 0.08760174 0.07430897 2.810991e-39
-0.030404659 -1.074433e-38 -9.3511124e-23 -2.591428e-16 8.385e-42 -0.047558933 -2.0575809e-15 1.115298e-38
-0.17482577 -0.23572353 -0.018412033 -0.024395587 -0.0762432 0.123791024 0.022253435 -0.11563864
0.006421367 -0.10177217 -0.060384195 -0.027248356 -0.16892584 -0.11176664 0.19041292 -0.12607625
0.051978 1.9866137e-25 -0.050050393 0.19923353 -0.0024599014 0.16103151 0.15080412 -0.012301161
-0.08271622 0.16154626 -3.125956e-13 -0.099072054 -0.14165835 -4.717224e-14 0.20340341 0.0464764
-0.10243041 0.20133398 -0.13093932 0.0031041584 -0.24351937 0.04503287 0.09345662 -1.0732479e-38
-0.10282056 -0.21792582 0.17525214 0.022178853
00000000: ee02 183e abc0 5fbe 7b67 fe3d 91af fa3c
00000010: b349 61be 8b68 b33d 4d2f 983d e69b 1e00
00000020: 3113 f9bc d2fe 7480 9518 e29a ba62 95a5
00000030: 6017 0000 28cd 42bd ab43 14a7 f871 7900
00000040: 8705 33be 8261 71be d5d4 96bc 41d9 c7bc
00000050: 6525 9cbd 2686 fd3d d64c b63c f4d3 ecbd
00000060: 556a d23b ed6d d0bd 6b55 77bd f237 dfbc
00000070: e5fa 2cbe e8e5 e4bd 9bfb 423e 221a 01be
00000080: e2e6 543d 4dee 7516 a401 4dbd e003 4c3e
00000090: 4c36 21bb 72e5 243e 656c 1a3e cf8a 49bc
000000a0: 1f67 a9bd 626c 253e c6f9 afaa 4ae6 cabd
000000b0: e30e 11be e471 54a9 fc48 503e 0a5e 3e3d
000000c0: 09c7 d1bd 7f2a 4e3e f514 06be 236f 4b3b
000000d0: 245d 79be 6374 383d 2f66 bf3d c9dd 7480
000000e0: 9693 d2bd f227 5fbe 4c75 333e 6db0 b53c

fc2.0.weight f4 [40, 60]
-0.045812644 -0.010184953 -0.066722415 0.04096045 0.028862534 -0.071130924 0.1139304 -4.064441e-39
0.022141594 -2.3527016e-38 -3.675335e-39 3.961105e-39 2.4995314e-38 0.10564181 1.1179212e-38 -2.463114e-39
-0.055370282 0.030153245 -0.10621347 0.11202741 -0.00035211397 0.027419018 0.006880712 -0.073777355
0.074027136 -0.039248005 -0.0043883305 -0.068673 0.09213674 0.0022796444 0.07039913 0.11492077
0.14241423 -4.327382e-39 0.037246276 -0.07271196 0.09135534 0.0020120325 -0.067842565 -0.050518252
1.2022036e-13 0.012984453 -2.0376627e-38 -0.045537096 0.007585857 2.51998e-40 0.0463164 -0.12419048
0.116369635 0.104200244 0.02957237 0.09610897 -0.022790195 -0.027168116 -0.061870925 -1.1033023e-38
-0.08617676 0.06544639 -0.0844841 0.00022883754 0.10934388 -0.05446537 0.09277903 0.105919965
-0.14117917 0.10371517 0.011569772 1.151561e-38 0.03262649 5.185401e-39 9.897367e-39 -1.1947272e-38
-3.99603e-39 0.05403462 -4.995151e-35 -1.5591196e-38 -0.026919669 0.09755715 -0.10813062 -0.010930341
0.05702633 -0.107337825 0.013544043 0.041042514 -0.0010292458 -0.1135868 -0.08999378 0.003275269
0.06334538 -0.102106325 0.11716542 -0.08788132 -0.060609195 -6.32829e-40 0.117294535 0.09578912
-0.11468336 -0.028311774 0.02649003 0.11711739 0.07863498 0.016461508 -2.083808e-38 -0.08222366
-0.016816882 2.312513e-38 -0.020519136 0.09916761 -0.10408593 0.10452814 0.026273405 -0.09950652
0.008752937 -0.10603831 0.12921047 -1.9420413e-38 0.004137667 0.10826154 -0.03322462 -0.07199634
9.15451e-39 5.0766886e-32 8.533487e-39 -4.0945665e-19 -7.124816e-29 -2.569642e-21 -3.0092926e-21 -6.272e-41
-4.9406824e-38 1.2689331e-38 3.420045e-39 -5.1902e-40 3.408391e-39 -2.8831748e-21 2.962516e-39 -5.55465e-39
-7.503265e-39 -5.139985e-38 -1.8156674e-18 -2.4308582e-38 -5.278798e-38 -8.340608e-39 1.019773e-39 -2.555889e-15
-1.201316e-38 -1.8196747e-28 2.6413918e-38 -1.0747488e-38 -2.1346034e-38 1.0518258e-38 1.6612251e-24 -2.22893e-23
-5.1618824e-38 2.424582e-38 -5.711573e-38 4.73044e-38 -2.5510874e-38 -1.938231e-22 -4.7705244e-20 -2.3572598e-38
2.60669e-39 -2.9663438e-26 4.089435e-39 -5.7152804e-38 7.259818e-39 -7.609789e-39 6.532555e-19 -1.1245483e-23
-7.622416e-39 -1.2080865e-31 -5.417412e-38 1.3765963e-19 -1.8844101e-31 -8.713462e-26 -5.347806e-20 2.477299e-38
1.216175e-37 3.7676524e-31 -4.2481445e-26 9.603904e-39 -0.013013402 0.06871183 -0.0026773005 0.11831078
0.09962537 -0.058159675 0.02521372 -2.756954e-39 0.00435439 -2.859826e-39 -7.904953e-39 -7.138461e-39
-8.815758e-39 0.046718862 2.7917823e-38 1.7122397e-38 -0.13549037 -0.056038246 -0.0063384282 -0.05519589
0.07351011 0.045073703 0.029118396 0.023586014 0.07273358 0.09182401 0.10927553 -0.027342223
-0.076030515 0.05086822 -0.09249357 0.02088356 -0.108905874 5.490796e-39 -0.01915265 0.08686519
0.08268549 0.050819725 0.12117723 0.046144836 0.05165769 -0.078087285 -4.521246e-38 0.11338269
-0.006555383 2.7901107e-35 0.034919217 0.03713551 0.050062887 0.07860102 0.052831374 0.11519458
0.103111856 -0.095202595 -0.020725615 1.170635e-39 0.011745477 -0.0925913 0.038637917 0.1015748
-0.027560141 -0.04546131 -0.044142317 0.005598945 0.012431764 -0.09037838 -0.028059684 2.064254e-39
-0.11076647 2.09968e-39 2.2977e-40 2.860158e-39 -1.0221924e-38 -0.018348176 5.3848055e-38 -1.090385e-38
00000000: 0aa6 3bbd cade 26bc c3a5 88bd 25c6 273d
00000010: 1f71 ec3c 17ad 91bd 5754 e93d 0242 2c80
00000020: 4a62 b53c e017 0081 5705 2880 f321 2b00
00000030: 6216 0801 bc5a d83d 18bb 7900 29d2 1a80
00000040: f3cb 62bd f003 f73c 7386 d9bd a06e e53d
00000050: f09b b8b9 d99d e03c 9977 e13b 9518 97bd
00000060: 8a9b 973d 84c2 20bd fccb 8fbb 6ea4 8cbd
00000070: 30b2 bc3d 1666 153b 6b2d 903d 955b eb3d
00000080: 09d5 113e fb1e 2f80 8d8f 183d 02ea 94bd
00000090: 8218 bb3d 4edc 033b 0bf1 8abd 3aec 4ebd
000000a0: 295b 072a bebc 543c bfe1 dd80 1b85 3abd
000000b0: c892 f83b 78be 0200 44b6 3d3d 9457 febd
000000c0: 3453 ee3d f066 d53d c141 f23c c8d4 c43d
000000d0: 81b2 babc ab8f debc 5e6c 7dbd 9423 7880
000000e0: 717d b0bd c208 863d 0006 adbd 1cf4 6f39
000000f0: afef df3d 1417 5fbd ef02 be3d 91ec d83d
00000100: 4691 10be 9e68 d43d 248f 3d3c d664 7d00
00000110: 5ba3 053d ca76 3800 d5c5 6b00 2218 8280
00000120: 4e83 2b80 6853 5d3d 3ccb 8486 e9c5 a980
00000130: a386 dcbc 0bcc c73d 9673 ddbd 2c15 33bc
00000140: 7194 693d efd3 dbbd d5e7 5d3c 321c 283d
00000150: c2e7 86ba 32a0 e8bd a94e b8bd e5a5 563b
00000160: 39bb 813d 1f1d d1bd 6cf4 ef3d 1ffb b3bd
00000170: 5941 78bd 12e4 0680 1e38 f03d 162d c43d
00000180: 1cdf eabd 18ee e7bc 9f01 d93c 3edb ef3d
00000190: 600b a13d 49da 863c 17e8 e280 e164 a8bd
000001a0: 8fc3 89bc 74cf fb00 bf17 a8bc 6318 cb3d
000001b0: 012b d5bd d912 d63d 533b d73c 13ca cbbd
000001c0: 7b68 0f3c 9d2a d9bd c04f 043e 3678 d380
000001d0: 4495 873b 3ab8 dd3d 8a16 08bd d172 93bd
000001e0: 0daf 6300 62cc 830b e4eb 5c00 57b3 f1a0
000001f0: b3a2 b490 1b28 429d 2f60 639d d6ae 0080
00000200: 887f 8681 b12c 8a00 b23d 2500 d1a6 0580
00000210: 351d 2500 b6d8 599d 4a42 2000 1b7c 3c80
00000220: 0db4 5180 78ec 8b81 fdf8 05a2 3859 0481
00000230: dab3 8f81 39d2 5a80 b61a 0b00 d52b 38a7
00000240: cdcf 8280 d2ab 6691 a1cf 0f01 a007 7580
00000250: 0f70 e880 a088 7200 f487 0018 a291 d799
00000260: 1285 8c81 be01 0401 db7b 9b81 5bc6 8001
00000270: f8e4 0a81 5851 6a9b 1a48 619f 6857 0081
00000280: 6462 1c00 e0e2 1295 ae87 2c00 b195 9b81
00000290: 6b0d 4f00 ffdc 5280 97ce 4021 ef84 5999
000002a0: 3200 5380 8fd1 1c8c da79 9381 1285 2220
000002b0: 449c 748c 20bc d795 028b 7c9f 82e0 0601
000002c0: 8489 2502 dd88 f40c a15b 5295 c793 6800
000002d0: 2a36 55bc cab8 8c3d a675 2fbb ec4c f23d
000002e0: 6308 cc3d d738 6ebd 018d ce3c 4405 1e80
000002f0: 45af 8e3b 0824 1f80 cb13 5680 20bb 4d80
00000300: bffe 5f80 475c 3f3d c4ff 1701 4772 ba00
00000310: fdbd 0abe 5c88 65bd 97b2 cfbb 1615 62bd
00000320: 788c 963d 349f 383d b489 ee3c 7537 c13c
00000330: 58f5 943d 3a0e bc3d d9cb df3d ccfc dfbc
00000340: e3b5 9bbd 325b 503d 456d bdbd 0014 ab3c
00000350: 0b0a dfbd 1bca 3b00 05e6 9cbc 60e6 b13d
00000360: 0357 a93d 5828 503d c42b f83d 5e02 3d3d
00000370: 0497 533d 3aec 9fbd f928 7681 2f35 e83d
00000380: 8ace d6bb 0559 1406 7407 0f3d 681b 183d
00000390: be0e 4d3d 92f9 a03d b665 583d 23eb eb3d
000003a0: 4f2c d33d 94f9 c2bd c4c8 a9bc 41bf 0c00
000003b0: 1a70 403c 82a0 bdbd cb42 1e3d 7306 d03d
000003c0: cec5 e1bc a335 3abd 93ce 34bd 5b77 b73b
000003d0: 99ae 4b3c 4d18 b9bd 6cdd e5bc 4d7a 1600
000003e0: 88d9 e2bd 0edd 1600 8180 0200 f524 1f00
000003f0: 914e 6f80 ea4e 96bc 9e96 9201 7fbb 7680

fc2.0.bias f4 [40]
0.039987464 -0.0861524 1.059844e-39 -0.0028865829 -0.11085772 -0.110324785 -0.05042788 -7.686648e-08
0.13437054 0.03718664 0.0040152096 0.000372405 -0.102007695 -0.056644548 6.439795e-39 0.026203256
-1.9344064e-09 0.051689688 -0.07582383 4.71312e-23 -0.037124448 -0.033034243 -0.07318019 0.08710879
-0.015875777 0.06585607 0.010856664 -0.017099267 -0.08349693 -0.05471143 -0.05380283 0.05754494
0.007756081 0.0055781193 0.0884991 -0.026458021 0.008750731 0.014280902 -0.0019079515 7.538804e-39
00000000: e5c9 233d ab70 b0bd 6a8a 0b00 d32c 3dbb
00000010: 5f09 e3bd f6f1 e1bd 778d 4ebd cb11 a5b3
00000020: 6e98 093e 0551 183d 0592 833b 5a3f c339
00000030: 69e9 d0bd 1d04 68bd 871f 4600 36a8 d63c
00000040: 70ee 04b1 91b8 533d 8649 9bbd 99e9 631a
00000050: ce0f 18bd ea4e 07bd 7fdf 95bd 1866 b23d
00000060: eb0d 82bc 8cdf 863d 26e0 313c c313 8cbc
00000070: 7000 abbd 1819 60bd 5b60 5cbd 3eb4 6b3d
00000080: b926 fe3b a8c8 b63b 043f b53d 7ebe d8bc
00000090: 3a5f 0f3c 72fa 693c 3b14 faba 1e17 5200

fc3.0.weight f4 [10, 40]
-4.00111e-39 -1.842315e-39 -1.1123581e-38 6.373481e-39 7.065742e-39 -1.9753156e-34 -1.1464e-41 1.0087274e-38
2.8138398e-37 -2.577843e-39 2.2901831e-38 -3.610646e-39 1.0874382e-38 -3.450071e-39 -1.1843186e-38 -5.501916e-38
-1.30707e-39 -2.2793566e-32 2.3266563e-37 1.2234835e-38 -5.850802e-38 9.3251e-41 -5.17607e-40 -9.897287e-39
1.700155e-39 5.036191e-38 -3.084394e-39 -5.234806e-38 -2.2617354e-38 3.575822e-39 -8.110288e-33 2.244971e-39
-9.108908e-39 -3.27996e-40 2.4549104e-38 -1.1898838e-37 1.0458598e-38 5.5910015e-38 1.142886e-39 -2.5698156e-33
0.066105194 -0.13449346 0.0022070126 -0.01517984 -0.06979306 -0.08316992 -0.052825566 0.078956276
-0.0708961 0.08733203 -0.022450922 0.070939526 -0.14582363 0.15046374 3.654404e-39 0.047367744
-0.001126986 -0.0054753427 0.006761355 5.9044472e-05 0.12504263 -0.11837159 -0.034634084 0.031502377
-0.012398384 0.15226611 0.103782296 0.120122395 -0.11606887 0.12839177 -0.085250914 0.12078503
0.0048155943 -0.053105008 0.087544896 0.12507331 -0.14395131 -0.01547184 -0.14285648 -3.581964e-39
-0.00018069452 -0.08925591 -5.0438774e-38 0.034901176 -0.058426015 0.112010665 -0.044913586 0.025791993
-4.327073e-05 0.015208656 5.008787e-38 -0.00070330204 -0.00017844376 0.08731392 1.3164783e-38 0.05206035
5.7723183e-38 0.061181918 -0.12860242 -1.693562e-39 0.08010113 -0.00018225037 -0.118488826 0.030332953
-0.14032704 -0.0017078372 2.4051295e-38 0.054150824 -0.1105168 -0.103061974 0.043426167 -0.11442934
-0.001524128 -0.024470944 0.0012823262 0.06400906 -0.012195274 -0.015102303 0.1285142 -5.110912e-39
0.031536564 0.10987121 1.4365123e-17 -0.13646615 0.100013286 0.10852746 0.11535306 -0.004594971
-0.065434076 -0.010882056 0.01439128 0.0015120165 -0.0638638 -0.1460935 3.400968e-39 0.0431989
-0.0008046618 -0.106496595 -0.11081091 1.1133476e-16 0.06942127 0.03037761 0.035645943 0.109057456
-0.048015423 -0.033590548 0.098321274 0.12830444 -0.07620625 0.09119246 0.08645665 0.08683283
0.056233224 -0.0290902 0.02506831 0.13878255 -0.114719205 0.123613134 0.040337667 1.2077207e-38
-2.4835756e-38 9.300107e-39 -6.352683e-33 1.469026e-39 2.1894247e-38 -5.838759e-38 1.092793e-39 4.127054e-39
-4.9820165e-33 -4.96961e-39 5.4239695e-38 2.700086e-39 2.6935734e-38 1.062413e-38 1.122527e-39 -3.4889467e-36
2.138414e-39 5.023464e-39 4.297602e-39 -3.73895e-39 9.791045e-39 3.74261e-39 -5.535998e-38 -8.897202e-34
6.974344e-39 -5.283532e-38 -7.43003e-40 1.6775291e-38 -2.5877868e-38 2.6474222e-38 -5.0593354e-38 4.792054e-39
-9.753208e-39 -2.6921867e-37 -1.1861061e-38 -4.3644e-39 3.74445e-39 2.3835482e-38 -2.96499e-39 5.9325226e-38
-0.004280949 0.12687036 -0.0012768944 -0.047321185 -0.10526043 0.034079805 0.049819533 0.0023506447
-0.012935013 0.005479003 -0.017267192 0.017216705 0.13479003 0.04327154 -2.531541e-38 0.03562017
0.001122968 0.14367874 -0.10085255 -3.7675487e-05 -0.055450547 0.13586849 -0.00050827523 -0.17778921
0.0982341 -0.073978126 0.07088102 -0.15152915 -0.11976294 0.022474157 0.0006991526 -0.12209571
0.0009297693 0.011633694 0.03739791 0.06401545 0.059242353 -0.0027787269 0.08196746 4.992133e-39
0.14186923 -0.111571714 -0.0018675067 -0.06305737 0.047111444 -0.0121250665 0.015569922 0.05075814
0.12304233 0.044230532 0.0031316753 0.024717344 -0.03678283 0.10531711 2.0876886e-35 -0.0916309
00000000: 7891 2b80 a00f 1480 0520 7980 ac66 4500
00000010: 6af0 4c00 4148 8387 f51f 0080 37d7 6d00
00000020: 0180 bf02 fa11 1c80 fd60 f900 0351 2780
00000030: 5a69 7600 6591 2580 fcf5 8080 c2c6 9581
00000040: 943b 0e80 b1b3 ec8a 1258 9e02 be39 8500
00000050: 2446 9f81 f203 0100 e1a2 0580 9cc5 6b80
00000060: 5783 1200 2119 8901 0996 2180 4681 8e81
00000070: fb47 f680 f0ef 2600 b071 288a 1172 1800
00000080: ee2f 6380 5292 0380 75a8 0501 66f5 2182
00000090: 51e2 7100 9833 9801 e771 0c00 ef7d 5589
000000a0: 2962 873d a7b8 09be 87a3 103b ddb4 78bc
000000b0: aaef 8ebd fe54 aabd 9f5f 58bd d4b3 a13d
000000c0: f931 91bd 23db b23d ffea b7bc be48 913d
000000d0: ca52 15be 2b13 1a3e feca 2700 ae04 423d
000000e0: 60b7 93ba 816a b3bb 5b8e dd3b 85a6 7738
000000f0: 2d0b 003e ce6c f2bd 78dc 0dbd a308 013d
00000100: 9722 4bbc a6eb 1b3e d08b d43d bb02 f63d
00000110: 84b5 edbd 2279 033e 0898 aebd 245e f73d
00000120: 22cc 9d3b a384 59bd bd4a b33d 3813 003e
00000130: f967 13be 9a7d 7dbc f848 12be 0f01 2780
00000140: d178 3db9 cdcb b6bd b24e 8981 89f4 0e3d
00000150: 1e50 6fbd d965 e53d 4ff7 37bd bb49 d33c
00000160: 987d 35b8 ba2d 793c 275a 8801 cd5d 38ba
00000170: a21c 3bb9 a4d1 b23d 0f5a 8f00 3c3d 553d
00000180: 3023 9d01 e499 7a3d 5ab0 03be f670 1280
00000190: 100c a43d 761a 3fb9 45aa f2bd d07c f83c
000001a0: e4b1 0fbe 82d9 dfba 9df2 0201 41cd 5d3d
000001b0: a256 e2bd 2812 d3bd a3df 313d ee59 eabd
000001c0: 40c5 c7ba 4a77 c8bc ba13 a83a 2f17 833d
000001d0: b0ce 47bc a66f 77bc 3a99 033e 25a7 3780
000001e0: 7c2c 013d 2804 e13d b07e 8423 c8bd 0bbe
000001f0: c4d3 cc3d a543 de3d 3a3e ec3d 6991 96bb
00000200: 4d02 86bd a74a 32bc 67c9 6b3c db2e c63a
00000210: 06cb 82bd 8999 15be 8408 2500 54f1 303d
00000220: f0ef 52ba e31a dabd d5f0 e2bd 395c 0025
00000230: bd2c 8e3d 77da f83c 7b01 123d 8459 df3d
00000240: d2ab 44bd 3e96 09bd aa5c c93d 3d62 033e
00000250: 0612 9cbd 1dc3 ba3d 2f10 b13d 69d5 b13d
00000260: cf54 663d 924e eebc 0e5c cd3c 031d 0e3e
00000270: e7f1 eabd e228 fd3d 1c39 253d 5782 8300
00000280: fe37 0781 ea44 6500 a8f0 038a 0cff 0f00
00000290: 4168 ee00 36f2 9e81 43e6 0b00 8cf0 2c00
000002a0: e3f1 ce89 401d 3680 8da7 9301 be66 1d00
000002b0: efa6 1201 c1af 7300 2639 0c00 4467 9484
000002c0: 0749 1700 60b3 3600 f7cb 2e00 acb6 2880
000002d0: 739d 6a00 e0c0 2800 46b4 9681 83d4 9388
000002e0: a2f1 4b00 d8d4 8f81 3117 0880 b0aa b600
000002f0: 7ce4 0c81 ae23 1001 6cba 8981 4c2e 3400
00000300: fa33 6a80 8238 b782 d027 8180 2c86 2f80
00000310: 01c6 2800 d0c5 0101 3049 2080 a67f a101
00000320: 3447 8cbb 4eea 013e 775d a7ba dcd3 41bd
00000330: c892 d7bd 4497 0b3d 910f 4c3d 460d 1a3b
00000340: 60ed 53bc 3589 b33b ed73 8dbc 0c0a 8d3c
00000350: 6606 0a3e 803d 313d 88d4 0981 75e6 113d
00000360: 8e30 933a 8520 133e c88b cebd bf05 1eb8
00000370: 1d20 63bd 1c21 0b3e c63d 05ba 600e 36be
00000380: f62e c93d d881 97bd 112a 913d 752a 1bbe
00000390: 4646 f5bd b91b b83c 5647 373a 510d fabd
000003a0: c3bb 733a 409b 3e3c 8d2e 193d 881a 833d
000003b0: 1ca8 723d 4d1b 36bb 8ede a73d 095c 3600
000003c0: 2b46 113e b67f e4bd 20c7 f4ba 3924 81bd
000003d0: eef7 403d 37a8 46bc fc18 7f3c c4e7 4f3d
000003e0: 9efd fb3d 132b 353d cb3c 4d3b 077c ca3c
000003f0: 98a9 16bd 7fb0 d73d 4a00 de05 fba8 bbbd

fc3.0.bias f4 [10]
8.483489e-34 0.083629414 -0.051311273 -0.11221037 -3.057998e-39 0.03545394 -0.078875124 -0.067454986
0.113078035 -0.05782855
00000000: c5f4 8c08 e645 ab3d c52b 52bd 8dce e5bd
00000010: 744c 2180 2738 113d 4889 a1bd d725 8abd
00000020: 7595 e73d a1dd 6cbd

fc4.0.weight f4 [2, 10]
-5.277938e-18 -0.23603356 -0.021245424 -0.0372834 -5.8040224e-38 0.22288637 0.2743115 -0.27469113
-0.030278513 -0.12936488 3.260047e-39 0.18021762 -0.076009385 -0.024165038 2.092202e-39 -0.11737987
-0.09830576 0.27173612 -0.17027047 0.17439993
00000000: b7b8 c2a2 c8b2 71be e20a aebc 7ab6 18bd
00000010: 2200 9e81 533c 643e 8f72 8c3e 51a4 8cbe
00000020: a50a f8bc 3a78 04be af7f 2300 f88a 383e
00000030: cfaa 9bbd c2f5 c5bc 35c8 1600 db64 f0bd
00000040: 8854 c9bd ff20 8b3e 625b 2ebe e595 323e

fc4.0.bias f4 [2]
-0.20481043 0.29618979
00000000: d3b9 51be 30a6 973e
