Faza III/prediction&detection/model/Model_10years.pth (torch, 15791 bytes, 8 tensors)

fc1.0.weight f4 [40, 15]
2.3039414e-28 -0.060695127 -3.60717e-19 3.432153e-24 -0.024790637 2.61848e-40 -3.63882e-40 -6.278004e-23
3.57373e-40 -0.0905684 -0.110883854 -0.071390815 -0.01920173 -0.06718979 -0.123282276 -2.3342777e-27
0.03888445 -3.1432154e-10 -2.563918e-34 0.0010652115 -1.6607801e-34 1.75607e-40 2.2999959e-28 1.7770243e-31
-0.23462623 0.029703114 -0.009974922 0.05060343 -0.19934064 0.012137211 -0.0008645778 0.15886147
-0.041431706 -0.007723425 -0.21508248 0.000319889 0.0054468 0.0068987985 0.0065447004 -0.13340527
-0.123829305 -0.10848792 -0.09662601 -0.08214575 0.3682486 -0.0028316632 -0.29519942 0.09029593
-0.001346341 -0.29660606 7.977083e-09 -4.716652e-13 -0.0045149913 0.001823428 0.009251197 -0.10465956
0.093727626 0.1374263 0.04532353 0.0544854 -0.2050916 -0.47527444 0.83487 -0.046800107
-0.37198988 -0.061885435 -0.00033024274 -0.6808974 -0.025330516 0.003628413 -0.36252195 0.2094941
0.126482 0.33895063 0.006402 9.514088e-32 -0.032734983 -1.3614741e-12 1.9136686e-33 -0.0010573007
-8.10529e-40 2.1154e-40 -7.8083175e-37 -1.24518e-39 -0.09317536 -0.057570215 -0.0690482 -0.023666099
-0.08714507 -0.061118856 0.100196235 0.118903145 -0.28020307 0.048822656 0.1426052 0.10382845
0.05323578 0.4056472 0.058839235 0.04002085 0.083481714 0.014875811 -0.008651204 0.0033827405
-0.13644792 6.716069e-06 -0.21555634 -0.040577393 -4.178918e-06 0.10697095 -5.0298086e-18 -1.7671559e-23
2.18546e-05 8.0671e-23 -0.0474505 0.21264182 -0.053925414 -0.22925667 -0.08499727 -0.24887161
-0.0046517677 0.011554926 -0.02224376 -0.0025505947 -0.15134896 0.00097310345 2.3610953e-16 0.0047297985
-8.8829416e-05 -0.14802912 -0.1759955 -0.24616499 -0.20091912 -0.200803 0.46857643 -1.047431e-39
-4.8222266e-24 -7.24363e-40 -5.51251e-40 1.276618e-38 -1.379857e-39 -6.54314e-40 7.14668e-40 -1.129748e-39
-4.1786686e-07 -9.8639e-09 -6.1884256e-19 9.676458e-37 3.0122638e-20 -1.1035227e-09 2.5111327e-10 -0.00052415434
-0.00015871049 -1.0128926e-10 -0.032475535 -6.0737304e-24 5.14384e-40 -2.414683e-10 -5.000219e-26 0.056518525
0.009657469 0.043115295 -0.20999958 -0.320644 -0.022245988 -5.79011e-40 4.5748513e-20 -7.42593e-40
2.0086e-40 -3.80241e-40 4.7219e-40 -7.7879e-40 -5.40925e-40 -3.30739e-40 -7.237262e-05 -1.7385923e-07
-3.7072423e-13 -8.838075e-30 -4.6297372e-15 -1.7967301e-09 -9.916965e-39 0.00072263076 -2.815852e-23 1.181608e-39
-0.000105355204 -1.337259e-39 -8.24563e-40 9.87786e-40 1.8976e-40 -0.007828688 0.009217311 -0.011052564
-6.0422135e-06 -0.022012388 0.005071346 -6.4643496e-07 -0.020575237 0.0022177252 2.1123847e-07 -0.09292653
-1.7266135e-14 2.9996305e-37 -3.4490583e-06 2.8210034e-14 0.044837963 0.043191914 -0.27481237 0.02449687
0.038841948 -0.13079563 -0.00065006013 -0.31225526 0.0064600385 -0.0022735684 -0.10719696 -0.000861802
3.5378345e-32 -0.0039185067 -5.8175305e-09 0.113153905 0.027111407 -0.11907274 -0.26461142 -0.0054077106
-0.09099574 -8.13182e-40 -0.0017469397 -3.1175689e-27 8.2822e-41 -7.99407e-08 7.51309e-40 -5.29568e-40
9.111e-42 -5.4787e-41 -0.016268095 -0.013331318 -0.00031120022 -0.00047631358 -0.007965974 -0.018041162
1.9020535e-14 -0.15860061 -0.0019979584 -0.00048689893 0.014479259 -1.127216e-30 -7.885e-41 5.1979613e-20
7.4244e-41 0.11792879 -0.10061176 -0.057788648 -0.10251035 -0.122494265 -0.2033078 -3.0191304e-18
00000000: 9607 9211 749b 78bd 03ee d4a0 66c6 8418
00000010: bc15 cbbc edd9 0200 5bf6 0380 f6ca 979a
00000020: 36e4 0300 ed7b b9bd 1317 e3bd 5935 92bd
00000030: f24c 9dbc cd9a 89bd 6b7b fcbd c7f0 3893
00000040: 4d45 1f3d d3cc acaf ce66 aa87 919e 8b3a
00000050: 6bc1 5c87 85e9 0100 91c7 9111 c3ab 660c
00000060: dc41 70be f253 f33c db6d 23bc 8b45 4f3d
00000070: f41f 4cbe 27db 463c d6a4 62ba 95ac 223e
00000080: 4bb4 29bd c914 fdbb 953e 5cbe c6b6 a739
00000090: 127b b23b 510f e23b ed74 d63b 649b 08be
000000a0: 389a fdbd ea2e debd dce3 c5bd 083c a8bd
000000b0: 158b bc3e 6d93 39bb 6124 97be 13ed b83d
000000c0: b577 b0ba c0dc 97be 950b 0932 0fc3 04ab
000000d0: 7ef2 93bb 1700 ef3a 5592 173c c057 d6bd
000000e0: 45f4 bf3d 7bb9 0c3e 2aa5 393d 152c 5f3d
000000f0: 8803 52be 2c57 f3be 0aba 553f 78b1 3fbd
00000100: 7575 bebe 957b 7dbd 6e24 adb9 4b4f 2ebf
00000110: f181 cfbc abca 6d3b 7a9c b9be 9f85 563e
00000120: 7f84 013e f08a ad3e dec7 d13b f6ff f60b
00000130: 1e15 06bd 469c bfab 3bfb 1e09 2095 8aba
00000140: 6dd3 0880 b04d 0200 05da 8483 0e8f 0d80
00000150: b9d2 bebd bfce 6bbd 2569 8dbd 68df c1bc
00000160: 1d79 b2bd c457 7abd af33 cd3d 7e83 f33d
00000170: c776 8fbe 44fa 473d 1907 123e 03a4 d43d
00000180: c30d 5a3d fdb0 cf3e 6901 713d e7ec 233d
00000190: 76f8 aa3d acb9 733c c8bd 0dbc f8b0 5d3b
000001a0: 01b9 0bbe 985a e136 cdba 5cbe 7b34 26bd
000001b0: a238 8cb6 9613 db3d 3391 b9a2 a9e8 aa99
000001c0: 6554 b737 ee0c c31a 755b 42bd c7be 593e
000001d0: e5e0 5cbd 43c2 6abe 0c13 aebd 33d8 7ebe
000001e0: db6d 98bb df50 3d3c 8c38 b6bc e127 27bb
000001f0: 39fb 1abe de17 7f3a 9e1b 8825 6dfc 9a3b
00000200: ee49 bab8 f294 17be 2a38 34be ad12 7cbe
00000210: bebd 4dbe 4d9f 4dbe 40e9 ef3e d067 0b80
00000220: 058d ba98 3be3 0780 aa00 0680 ea02 8b00
00000230: 7b06 0f80 f61f 0780 34c8 0700 474d 0c80
00000240: 2f57 e0b4 e475 29b2 6ca6 36a1 eba2 a403
00000250: 0940 0e1f c1aa 97b0 0d0d 8a2f 6767 09ba
00000260: 866b 26b9 c9bc deae 1105 05bd 50f7 ea98
00000270: e599 0500 a4bf 84af 4e99 7795 f87f 673d
00000280: 5c3a 1e3c aa99 303d 210a 57be 732b a4be
00000290: 383d b6bc 0c4e 0680 8f0a 581f 0c16 0880
000002a0: ea2f 0200 f523 0480 4624 0500 f37a 0880
000002b0: e1e3 0580 f799 0380 c1c6 97b8 10ae 3ab4
000002c0: feb2 d0aa e941 338f cacd a6a7 d2f0 f6b0
000002d0: 77fc 6b80 ee6e 3d3a 8f2a 089a d8dd 0c00
000002e0: 25f2 dcb8 bc8f 0e80 8cfa 0880 8cc1 0a00
000002f0: f910 0200 e643 00bc 3404 173c d015 35bc
00000300: 38be cab6 5353 b4bc 892d a63b ac86 2db5
00000310: 668d a8bc 4157 113b cad0 6234 4450 bebd
00000320: ff84 9ba8 ef24 cc02 5f76 67b6 e917 fe28
00000330: 03a8 373d 01ea 303d 35b4 8cbe a9ad c83c
00000340: bc18 1f3d 4aef 05be cc68 2aba ecdf 9fbe
00000350: bbae d33b 2600 15bb 148a dbbd 8eea 61ba
00000360: e3b1 370b d166 80bb 8ae3 c7b1 3cbd e73d
00000370: be18 de3c 69dc f3bd 267b 87be 2a33 b1bb
00000380: f95b babd d2da 0880 92f9 e4ba cfff 7693
00000390: e0e6 0000 ddab abb3 582e 0800 38c4 0580
000003a0: 6619 0000 b998 0080 ab44 85bc 9a6b 5abc
000003b0: 9628 a3b9 bab9 f9b9 b783 02bc 0fcb 93bc
000003c0: 5e52 ab28 3368 22be 2ef0 02bb 7846 ffb9
000003d0: 6a3a 6d3c b9e6 b68d cddb 0080 7f77 751f
000003e0: f6ce 0000 a684 f13d 8a0d cebd cab3 6cbd
000003f0: f2f0 d1bd 46de fabd ec2f 50be c3c5 5ea2

fc1.0.bias f4 [40]
1.3222702e-22 1.7875187e-18 0.0003038718 0.007980949 0.24461867 -3.100602e-26 -0.09447664 -0.0019170705
-0.0010491024 -1.023706e-39 -1.7089617e-07 -5.8352e-40 -2.2799589e-32 -0.00019982549 -0.0057129147 7.129402e-38
-0.00058291975 3.309187e-08 -4.5818977e-11 0.00028204086 -7.47688e-40 -1.1287743e-05 -9.82867e-40 8.58933e-40
-1.356739e-39 -0.0130339265 -0.0011642587 -7.16013e-40 -7.24223e-40 0.00063609175 -3.472873e-05 0.020943498
-0.00077237905 1.04558e-40 0.062014423 6.1069e-40 -0.13830814 2.0002584e-07 -0.00023515595 -0.00011157313
00000000: 48da 1f1b 46e5 0322 fc50 9f39 87c2 023c
00000010: 517d 7a3e cd88 1995 f87c c1bd 3646 fbba
00000020: 0982 89ba ad25 0b80 957f 37b4 9e5a 0680
00000030: b4c3 ec8a 3f88 51b9 6733 bbbb ae14 c201
00000040: 15cf 18ba e520 0e33 9583 49ae e2de 9339
00000050: 4024 0880 7d60 3db7 d5b3 0a80 5b5a 0900
00000060: 09c6 0e80 408c 55bc 0a9a 98ba f4cb 0780
00000070: d7e2 0780 65bf 263a b1a9 11b8 b391 ab3c
00000080: 7b79 4aba 7723 0100 d602 7e3d 5ba6 0600
00000090: a6a0 0dbe afc6 5634 3294 76b9 5efc e9b8

fc2.0.weight f4 [50, 40]
-1.176534e-39 1.188842e-39 -0.011347261 -0.050416097 -0.00017637001 6.6821e-41 0.015614398 2.0454978e-27
-0.002108043 2.00814e-40 -3.0304817e-22 -8.74613e-40 -2.62086e-40 -4.4607308e-08 -0.0035316937 -1.26819e-40
-3.4363083e-07 -5.77303e-40 5.77177e-40 -0.0001599356 -2.91934e-40 -1.92806e-40 -7.57798e-40 -4.8629e-40
2.97039e-40 -0.003987572 -7.23228e-40 1.170576e-39 1.248337e-39 3.7172613e-05 -2.3202056e-15 -2.5119842e-08
-5.9580316e-26 9.36245e-40 -0.0006391056 9.3171e-40 -0.03802384 3.74877e-40 -7.5351556e-28 -2.9784167e-05
-8.84584e-40 7.97054e-40 -0.07948409 -0.03567039 -0.056357834 -1.140116e-39 -4.6006e-41 -0.001223446
-0.02222653 -1.221351e-39 0.02106862 5.46586e-40 5.4204e-40 -0.032951515 -0.051459584 -8.39722e-40
-0.06200999 5.83745e-40 1.0786853e-12 -0.07616518 8.3009e-40 2.4823015e-14 -6.21041e-40 -1.80089e-39
-1.215149e-39 -0.053000398 0.0022690224 1.168216e-39 -1.370187e-39 -0.054176293 -0.032549452 -0.051780995
-0.02671597 -9.05438e-40 -6.78796e-40 -2.415784e-39 -8.04e-43 0.008139764 -0.016071396 -0.00030646584
-7.7517003e-25 4.85069e-40 -5.5152395e-05 -0.017473688 -0.014063214 2.612278e-39 -5.244492e-38 3.6547146e-06
-0.002818075 2.863394e-39 0.0059329025 -1.50687e-40 -8.719e-41 -0.019995727 -0.010445481 -0.015181251
1.1763085e-08 -5.793477e-39 -5.43934e-40 -5.2214342e-05 -2.43292e-40 1.32414e-40 -6.370869e-39 1.6603942e-35
2.108486e-06 -0.014721565 5.182376e-39 -1.0758515e-26 3.45015e-40 -0.028690495 0.0006429422 -0.012889048
0.0011543173 -3.397901e-30 1.130695e-39 -2.76162e-40 -9.452922e-05 1.214826e-39 4.1738532e-26 0.002264971
-0.008509999 -0.0005366458 0.15780495 -0.05978783 -0.25944906 -0.01885836 0.19051287 -0.0591195
0.2306558 3.7683161e-19 0.042205594 1.3855108e-28 0.031538457 -0.024296971 -0.0735739 -1.1577928e-12
0.098012686 0.05462534 -0.14583091 -0.009936148 1.090074e-39 0.123690166 -2.18936e-40 1.386e-41
-2.27111e-40 -0.08189084 -0.02992578 1.0793717e-38 -2.5292305e-24 0.07910733 0.02087283 0.048521757
-0.0892865 -3.1435833e-28 0.07402612 -4.69043e-40 0.35418507 0.042501245 0.057864066 -0.0010465954
9.82401e-40 1.2202e-39 -0.07733696 -0.031010466 -0.14277627 -3.625829e-39 -0.23506197 -1.01059e-39
-0.00079810526 -9.4055e-41 -7.6023796e-05 -1.54864e-40 4.9986e-41 -2.643286e-06 -6.504489e-05 6.34299e-40
-7.71125e-40 7.58559e-40 -8.4155e-41 -2.1774924e-21 2.64876e-40 -1.2184e-40 4.42687e-40 1.080506e-39
-5.39637e-40 0.037490137 -1.320537e-39 -1.006743e-39 1.203683e-39 -0.0018648043 -1.2973539e-18 -0.00090567506
-2.5016222e-27 -1.1644546e-38 -0.00041572953 5.70342e-40 -0.053229064 8.70035e-40 -1.305683e-38 -5.12448e-40
-8.9128e-40 -0.00072243414 -0.0027192915 -0.17071325 -0.056997072 4.0735e-40 -5.1656e-41 -0.09603706
-0.0045069945 -3.16556e-40 -0.16849029 -6.84725e-40 -9.94258e-40 0.048079953 -0.15096563 8.37985e-40
-0.026559878 -0.016709028 -5.884972e-10 -0.043168217 1.46936e-40 -0.012435078 -1.189341e-39 8.882944e-39
8.34619e-40 0.039544612 -0.10098635 -3.51377e-40 6.92426e-40 0.0333385 -0.07378691 -0.05607122
-0.09405806 -3.29693e-40 -2.2042e-40 -1.26076e-40 -0.006113207 0.02959268 0.054802455 -3.57178e-40
3.4243e-40 0.007861078 -7.51403e-40 -0.08807912 -0.008679116 5.38185e-40 -0.00011228704 0.03484844
1.5385e-40 1.98341e-40 -0.029374896 -4.4102e-40 -5.25017e-40 -0.1525742 -0.07147567 -2.74598e-40
00000000: b3cf 0c80 02f2 0c00 dde9 39bc 1c81 4ebd
00000010: f7ef 38b9 45ba 0000 88d3 7f3c a00f 2213
00000020: 1827 0abb ca2f 0200 6f2e b79b 1186 0980
00000030: 97da 0280 4196 3fb3 fd73 67bb 8561 0180
00000040: 437c b8b4 4949 0680 ef48 0600 63b4 27b9
00000050: cb2d 0380 7719 0280 6f40 0880 944b 0580
00000060: 063c 0300 2eaa 82bb 11e0 0780 17bf 0c00
00000070: db97 0d00 cae9 1b38 3d30 27a7 1ec7 d7b2
00000080: 8383 9395 df31 0a00 a789 27ba 3a25 0a00
00000090: e3be 1bbd 0115 0400 72cc 6e92 03d9 f9b7
000000a0: dca1 0980 ddad 0800 8ec8 a2bd 1d1b 12bd
000000b0: 79d7 66bd 2e6a 0c80 3f80 0080 095c a0ba
000000c0: 6914 b6bc a14c 0d80 1998 ac3c a9f3 0500
000000d0: fde6 0500 2bf8 06bd 49c7 52bd ce24 0980
000000e0: 30fe 7dbd 3e5b 0600 bccf 972b 7dfc 9bbd
000000f0: f409 0900 fa95 df28 36c3 0680 269c 1380
00000100: 573b 0d80 f216 59bd e1b3 143b 83b8 0c00
00000110: 86eb 0e80 f6e7 5dbd 9352 05bd 4f18 54bd
00000120: 73db dabc fedb 0980 3564 0780 394e 1a80
00000130: 3e02 0080 a55c 053c 29a8 83bc 26ad a0b9
00000140: 4ce7 6f97 2d48 0500 6f53 67b8 fb24 8fbc
00000150: 6569 66bc f871 1c00 c6c4 8e81 8543 7536
00000160: 74af 38bb fa2d 1f00 cb68 c23b 0ea4 0180
00000170: 0df3 0080 14ce a3bc 8623 2bbc c8ba 78bc
00000180: 9816 4a32 db15 3f80 44ec 0580 b900 5bb8
00000190: 33a6 0280 1e71 0100 645f 4580 3b90 b005
000001a0: 837f 0d36 b832 71bc 5b6e 3800 2718 5594
000001b0: c3c1 0300 5408 ebbc 1f8b 283a 962c 53bc
000001c0: 764c 973a d2d5 898e eb4f 0c00 d401 0380
000001d0: fd3d c6b8 713a 0d00 e0ad 4e15 e86f 143b
000001e0: 866d 0bbc b1ad 0cba 9f97 213e 15e4 74bd
000001f0: 82d6 84be d97c 9abc ce15 433e 4a27 72bd
00000200: 0931 6c3e 2f71 de20 c6df 2c3d 65a2 2f11
00000210: 782e 013d 710a c7bc eaad 96bd e2f1 a2ab
00000220: e0ba c83d d2be 5f3d b354 15be 3acb 22bc
00000230: afde 0b00 4551 fd3d 4e62 0280 a326 0000
00000240: 1879 0280 62b6 a7bd e926 f5bc 7e88 7500
00000250: 92b0 4398 0603 a23d 7ffd aa3c c0be 463d
00000260: d7db b6bd 8e3f c791 029b 973d 801b 0580
00000270: bf57 b53e c915 2e3d df02 6d3d ea2d 89ba
00000280: 89b2 0a00 6c49 0d00 d762 9ebd a909 febc
00000290: f133 12be 567b 2780 16b4 70be 1d01 0b80
000002a0: f037 51ba 3006 0180 f76e 9fb8 b3af 0180
000002b0: 578b 0000 4f63 31b6 b668 88b8 2be8 0600
000002c0: 9565 0880 8e42 0800 97ea 0080 d486 249d
000002d0: 5ee2 0200 a453 0180 08d2 0400 03c4 0b00
000002e0: 4ae0 0580 428f 193d 1f61 0e80 64f6 0a80
000002f0: 611b 0d00 736c f4ba a574 bfa1 d36a 6dba
00000300: ed32 4693 42cc 7e80 46f6 d9b9 e235 0600
00000310: b806 5abd 4e79 0900 212d 8e80 7f94 0580
00000320: 87b4 0980 bc61 3dba 2436 32bb 74cf 2ebe
00000330: c375 69bd 876f 0400 ff8f 0080 14af c4bd
00000340: 69af 93bb 6e72 0380 b888 2cbe bc74 0780
00000350: 96d3 0a80 7cef 443d bc96 1abe f61f 0900
00000360: 1a94 d9bc 5fe1 88bc cfc3 21b0 28d1 30bd
00000370: 9999 0100 7fbc 4bbc 66f3 0c80 09ba 6000
00000380: 9416 0900 88f9 213d eed1 cebd 7fd3 0380
00000390: 348a 0700 f38d 083d 971d 97bd f0aa 65bd
000003a0: 83a1 c0bd 0d97 0380 7166 0280 735f 0180
000003b0: 4c51 c8bb 596c f23c 8a78 603d abe3 0380
000003c0: 8eba 0300 c0cb 003c 9b2e 0880 d362 b4bd
000003d0: da32 0ebc 3edc 0500 a57b ebb8 3dbd 0e3d
000003e0: dfac 0100 e528 0200 9fa3 f0bc 62cd 0480
000003f0: 89b7 0580 693c 1cbe d661 92bd 78fd 0280

fc2.0.bias f4 [50]
0.0018695656 -9.048709e-05 -7.8680256e-05 -0.1633552 0.3504888 -0.0007935407 -8.689716e-05 -0.009800198
-0.03795509 -0.0037725496 -0.004148924 -0.0055226833 -0.00073929806 0.34985346 -8.606152e-07 -0.0066073434
-1.1743774e-06 0.007504148 -8.856984e-09 0.0036936607 0.13370109 -0.021940706 -0.0011419524 -0.0144732725
-2.9802095e-05 -0.018499812 0.014474825 0.046361454 -0.002125972 -0.0012846906 0.0035789232 -0.005659264
0.07624331 0.018381922 -0.0009779605 -0.02225237 -0.0075698844 -0.00059435336 -0.0043857764 -5.1587466e-07
-0.0018305802 -0.00020591411 -0.010248752 0.03999608 -0.024900435 0.033097558 -0.012366003 -1.6071264e-09
-0.0012086242 -0.0012072595
00000000: 360c f53a e3c3 bdb8 2401 a5b8 9646 27be
00000010: 4573 b33e 9d05 50ba 8f3c b6b8 0291 20bc
00000020: cc76 1bbd e13c 77bb b2f3 87bb a0f7 b4bb
00000030: 74cd 41ba fe1f b33e 0705 67b5 6a82 d8bb
00000040: 4d9f 9db5 5be5 f53b 6d29 18b2 5811 723b
00000050: f0e8 083e ffbc b3bc 90ad 95ba 4e21 6dbc
00000060: 83ff f9b7 eb8c 97bc d127 6d3c 82e5 3d3d
00000070: e453 0bbb 1063 a8ba 5e8c 6a3b 5971 b9bb
00000080: 7425 9c3d af95 963c e92e 80ba 9a4a b6bc
00000090: cb0c f8bb 61ce 1bba 8fb6 8fbb a37a 0ab5
000000a0: 14f0 efba a6ea 57b9 62ea 27bc eed2 233d
000000b0: fffb cbbc 4e91 073d c79a 4abc bce1 dcb0
000000c0: b36a 9eba e83c 9eba

fc3.0.weight f4 [10, 50]
-0.023396838 -0.052627932 0.0067386986 0.16654359 0.0012505795 0.005679564 8.273451e-05 0.073560566
0.030400261 -0.09721005 0.026105938 0.10856556 -0.014057763 -0.00036022373 0.10866863 0.06884833
0.016507637 -0.06803249 -0.00018307431 -0.04129029 -0.020687904 0.07145788 -0.045425303 0.066215664
0.0013234204 0.10508732 0.11381011 0.030085042 0.031857986 -0.018872403 -0.050631974 0.06895285
0.15646893 -0.004391548 0.089972824 0.05453124 0.040762052 0.0477073 -0.10476613 -0.0566221
-0.0012520395 0.0138378125 -0.010958615 -0.064613916 0.11607304 0.05711573 0.1433288 -0.0013010894
0.12876616 -0.029424107 6.43188e-40 -1.27487e-40 -7.10652e-40 -0.14361806 -1.87263e-40 -8.4999233e-13
0.037979573 -0.087366626 0.0081420485 0.07404564 0.022993186 -1.224275e-39 1.191076e-39 -0.17243506
-1.12751e-39 0.0061242194 1.4072e-40 -0.0041251048 3.98243e-40 6.85037e-40 8.5349e-40 -0.057943586
-0.08550187 -0.11251186 -1.35513e-39 -0.03800765 -0.15300359 8.0568e-41 -1.350553e-39 2.199e-42
-0.060030032 -0.08512935 -1.023354e-39 -0.05998575 -4.22829e-40 0.030574342 7.66303e-40 -0.00012541747
0.05598468 5.5716343e-09 -1.48667e-40 -3.733433e-39 -0.0233734 -0.16279078 -0.16627638 -0.14581196
5.9798294e-25 -6.83958e-40 0.0016081198 1.878847e-39 0.0007321189 -0.04836507 -0.013458901 0.050328553
-3.6397284e-17 -2.1141266e-05 -0.102488734 -0.0111761205 0.07008052 0.05235999 -0.11262289 0.0008148209
-0.0005643572 -0.0021856576 1.0962091e-08 -0.018914118 0.014210881 -0.07021005 -4.2966682e-20 0.00076864654
-0.00038135546 0.11834748 0.0076292544 -0.011008372 -9.9996905e-05 -0.10407446 -0.11901197 -2.632741e-05
6.93814e-40 -0.030874517 0.095918484 0.039074298 -0.016853793 -0.02877043 5.43279e-08 -0.16989754
-0.0012741595 0.04033951 0.08615021 -0.0014002905 1.6674103e-05 -8.169987e-15 0.0038788628 0.049640823
-0.11279119 0.01264127 -0.0016693732 7.320084e-06 0.06414946 -0.0026113493 8.27884e-40 -1.8033e-40
2.015576e-39 -0.007069582 -1.07055e-39 -3.2304355e-27 -0.017729484 0.04892275 -0.06547773 0.045884695
0.010976587 -9.32753e-40 1.156426e-39 -0.13385051 7.303324e-39 6.7997877e-07 -3.247411e-39 -0.07433864
-8.3698e-40 -0.0065702847 3.2409e-40 -0.023613794 0.082218565 0.018236062 -1.8955e-41 0.03980993
-0.004345215 8.09551e-40 5.6434e-41 -6.58735e-40 0.028673628 -0.054005884 -0.013905159 -0.044928245
1.200041e-39 -0.029278867 -5.18951e-40 0.0017028536 0.038764305 -3.911399e-24 -9.71774e-40 5.47817e-40
-0.1166599 -0.073033914 -0.12416285 -0.021172084 1.3848775e-37 -8.27691e-40 -0.12823924 -3.10844e-40
-0.013805984 0.04238824 0.024241729 -0.027964655 -0.23997904 -0.006119791 0.13985586 0.08247794
0.082156174 0.12636058 -0.02886255 -0.07188573 -0.013810121 0.15508373 -0.057051167 -0.011035512
-0.032367017 -0.10853305 0.0007060815 0.042930685 -0.14121379 -0.07791962 -0.084405236 -0.1521349
-0.0017675429 -0.061356407 -0.032639127 -0.08829037 -0.020284606 -0.009392779 0.0022809056 0.019804994
-0.117038466 0.016764984 -0.14533328 0.0356873 -0.10174263 0.06312159 -0.030707406 0.0284505
0.006522433 -0.016047094 0.099215604 -0.042860787 0.02941981 0.082606785 0.006039599 -0.0011954715
-0.028547663 -0.052726842 -6.79456e-40 0.0006419663 -1.2911657e-05 -0.0018267031 -3.24895e-40 1.301305e-39
00000000: baaa bfbc 6390 57bd 4dd0 dc3b 678a 2a3e
00000010: 7cea a33a a31b ba3b c081 ad38 eca6 963d
00000020: f809 f93c 1016 c7bd 1fdc d53c 9f57 de3d
00000030: 8852 66bc 69dc bcb9 a98d de3d 5a00 8d3d
00000040: 063b 873c 9e54 8bbd a3f7 3fb9 0220 29bd
00000050: ae79 a9bc 8258 923d e20f 3abd 149c 873d
00000060: 9f76 ad3a 0538 d73d 4615 e93d e874 f63c
00000070: 857d 023d 4c9a 9abc 7963 4fbd 2737 8d3d
00000080: 6439 203e fae6 8fbb ac43 b83d 265c 5f3d
00000090: 1cf6 263d bb68 433d a08f d6bd 93ec 67bd
000000a0: 791b a4ba feb7 623c c38b 33bc 4d54 84bd
000000b0: b4b7 ed3d 2ff2 693d c9c4 123e 5189 aaba
000000c0: 47db 033e d30a f1bc f200 0700 6263 0180
000000d0: 02bd 0780 9d10 13be 030a 0280 6740 6fab
000000e0: 7890 1b3d 46ed b2bd 3a66 053c 3ea5 973d
000000f0: 355c bc3c c854 0d80 3cf8 0c00 d192 30be
00000100: 0a47 0c80 adad c83b 4588 0100 e32b 87bb
00000110: 2456 0400 9b75 0700 2f4b 0900 4156 6dbd
00000120: 9b1b afbd 9e6c e6bd 8dc1 0e80 e9ad 1bbd
00000130: f9ac 1cbe 97e0 0000 cbb4 0e80 2106 0000
00000140: 0de2 75bd 4c58 aebd b224 0b80 9eb3 75bd
00000150: ad9a 0480 0b77 fa3c 2458 0800 7f82 03b9
00000160: 3150 653d 9d70 bf31 6c9e 0180 4ba7 2880
00000170: 9379 bfbc a0b2 26be 5b44 2abe bb4f 15be
00000180: 1711 3917 9972 0780 8cc7 d23a 7675 1400
00000190: abeb 3f3a 741a 46bd b982 5cbc 5025 4e3d
000001a0: 54da 27a4 8658 b1b7 9de5 d1bd 0c1c 37bc
000001b0: 6086 8f3d 6e77 563d d4a6 e6bd b499 553a
000001c0: 5ff1 13ba 403d 0fbb c953 3c32 c8f1 9abc
000001d0: c1d4 683c 49ca 8fbd 88e7 4a9f ff7e 493a
000001e0: aaf0 c7b9 2a60 f23d d3fe f93b 755c 34bc
000001f0: 6eb5 d1b8 fe24 d5bd 8cbc f3bd afd9 dcb7
00000200: 128e 0700 8eec fcbc e970 c43d 5f0c 203d
00000210: f710 8abc f7af ebbc 2856 6933 9ff9 2dbe
00000220: b301 a7ba 0b3b 253d 856f b03d f489 b7ba
00000230: 5ddf 8b37 6a2d 13a8 8534 7e3b 2d54 4b3d
00000240: 11ff e6bd 541d 4f3c dfce daba 0b9f f536
00000250: cb60 833d 2c23 2bbb ce03 0900 b0f6 0180
00000260: 9bf2 1500 f4a7 e7bb 42a8 0b80 04f1 7f93
00000270: 6c3d 91bc 3963 483d 3019 86bd 97f1 3b3d
00000280: 25d7 333c 2328 0a80 a597 0c00 1c10 09be
00000290: b286 4f00 c987 3635 765c 2380 db3e 98bd
000002a0: 291d 0980 8b4b d7bb 6e87 0300 b771 c1bc
000002b0: 3562 a83d cb63 953c d734 0080 bd0f 233d
000002c0: 4e62 8ebb b3d0 0800 519d 0000 492c 0780
000002d0: f5e4 ea3c 4635 5dbd 77d2 63bc ae06 38bd
000002e0: 3a11 0d00 3cda efbc a0a6 0580 4932 df3a
000002f0: 52c7 1e3d 9f50 9798 e994 0a80 17f7 0500
00000300: 63eb eebd ce92 95bd 1849 febd 1471 adbc
00000310: f07f 3c02 4403 0980 2651 03be 8262 0380
00000320: 7e32 62bc 4b9f 2d3d 9796 c63c 2216 e5bc
00000330: 11bd 75be 8788 c8bb 6036 0f3e 32ea a83d
00000340: 7f41 a83d ab64 013e 2871 ecbc d338 93bd
00000350: d943 62bc 45ce 1e3e 7cae 69bd 4bce 34bc
00000360: 4793 04bd 9346 debd 5418 393a 16d8 2f3d
00000370: 599a 10be 5294 9fbd a7dc acbd 40c9 1bbe
00000380: e6ac e7ba db50 7bbd 9bb0 05bd 95d1 b4bd
00000390: e72b a6bc 2ce4 19bc 3f7b 153b 153e a23c
000003a0: ddb1 efbd b856 893c 3fd2 14be d92c 123d
000003b0: 715e d0bd e445 813d 198e fbbc 0611 e93c
000003c0: 22ba d53b 3275 83bc 8d31 cb3d cb8e 2fbd
000003d0: d001 f13c bf2d a93d d4e7 c53b 5eb1 9cba
000003e0: cadc e9bc 1af8 57bd 0c66 0780 a149 283a
000003f0: 259f 58b7 fc6d efba ad89 0380 822b 0e00

fc3.0.bias f4 [10]
-0.36421397 -0.028684832 -0.05032722 -0.004865038 0.47399864 -3.800696e-06 0.0031571512 0.019269768
0.43167984 -0.011989
00000000: 417a babe 74fc eabc ea23 4ebd e66a 9fbb
00000010: f3af f23e 760f 7fb6 35e8 4e3b a2db 9d3c
00000020: 2405 dd3e 836d 44bc

fc4.0.weight f4 [2, 10]
0.038012683 -0.0683524 -0.21039239 0.30479345 0.08395826 -0.04484377 -0.030021992 0.16621743
0.081818536 0.26316258 0.2144762 -0.041871727 -0.21326514 0.25750726 -0.18712245 0.031006958
-0.08807429 -0.1627748 -0.1209261 0.26674208
00000000: 30b3 1b3d 58fc 8bbd 1a71 57be e30d 9c3e
00000010: 4ff2 ab3d 1aae 37bd aef0 f5bc e734 2a3e
00000020: 7a90 a73d 3fbd 863e a69f 5b3e b081 2bbd
00000030: 2d62 5abe fed7 833e 079d 3fbe 4e02 fe3c
00000040: 4b60 b4bd 70ae 26be 1aa8 f7bd 6b92 883e

fc4.0.bias f4 [2]
0.9152993 -0.7705192
00000000: 0e51 6a3f bf40 45bf
